saved/PPO_continuous_BipedalWalker-v2.pth (torch_old, 32100 bytes, 11 tensors)

actor.0.weight f4 [64, 24]
000000 d8 a5 0d 3f 6f 56 ee bf 05 14 1f be e6 2f 47 3f
       0.5533118 -1.8620127 -0.1553498 0.7780746
000010 8d 7e 13 3f 9c 8b e8 bd 9d 50 9b be 3a 71 d7 bd
       0.57614976 -0.113547534 -0.3033494 -0.10519643
000020 cf 44 b2 be 34 5e a3 bf 2e 20 66 3e ba 4d 69 bf
       -0.34818122 -1.2763124 0.22473213 -0.91134226
000030 39 c8 13 3f 99 66 4a bf 44 e8 8c be b4 ad 41 bd
       0.5772739 -0.790628 -0.27520955 -0.047284797
000040 ca 40 ad bd 8d f6 1a be 7e 75 94 be 30 c3 b4 bd
       -0.08459623 -0.15133114 -0.2899589 -0.088262916
000050 eb aa ad bd 85 bc 29 bd 2a 8d 9f 3e 1a f5 01 3e
       -0.08479866 -0.04143955 0.31162387 0.12691155
000060 d6 e9 38 3f f7 41 69 40 62 89 19 bf 5c 82 34 3e
       0.72231805 3.6446512 -0.59975255 0.17627853
000070 9a 03 be bc 87 50 81 3e 3b 51 04 3e d4 28 7b 3d
       -0.023195077 0.2525675 0.12921612 0.061318234
000080 0d af 0a 3e af 6d 57 3f ba 30 52 bd a7 4d 2b 3f
       0.13543339 0.8415174 -0.051316 0.66915363
000090 67 55 4e bf f1 e0 37 be 81 76 79 3e 38 e0 9e 3e
       -0.80599064 -0.17956902 0.24361612 0.3103044
0000a0 6b a6 53 3e 75 72 90 3e 59 7f 8b 3d 72 31 86 3e
       0.20668952 0.28212324 0.06811399 0.262096
0000b0 04 e9 fd bd b5 78 2a 3e 83 b9 e2 3d a9 3a 8c be
       -0.1239796 0.16647609 0.1107054 -0.27388504
0000c0 e1 ab de 3d 4e 5d 23 bf 52 9a 48 3e 37 a1 19 bf
       0.10872627 -0.63814247 0.19590119 -0.6001162
0000d0 ef da 8f 3e de c3 9d 3f f3 64 c7 3e da 94 2f 3f
       0.2809672 1.2325399 0.38944206 0.68586504
0000e0 8b ed 52 bd 31 b0 c4 bd 12 5d fe bc 14 37 00 3f
       -0.05149607 -0.09603918 -0.031050239 0.5008404
0000f0 93 32 43 be 8e 72 a4 3e bb 97 fb 3d eb d0 5c be
       -0.19062261 0.32118648 0.122848 -0.21564071
000100 cf 38 60 3d 51 6d 5f be b4 b4 34 bc 03 34 6f be
       0.054741677 -0.21819045 -0.011029411 -0.23359685
000110 9e 45 3a be 7b 11 65 be 2c 74 bb 3d d9 bd 1c 3d
       -0.1819062 -0.2236995 0.091530174 0.03826699
000120 9f c3 57 bf e8 dc 86 3f 93 14 d1 bd 09 1e e2 be
       -0.8428287 1.0536165 -0.10209002 -0.4416354
000130 6c a3 bb 3e fc e8 67 be c0 8e 41 3e e9 69 5b 3f
       0.36648118 -0.2264747 0.18902111 0.8570848
000140 69 13 37 be 1a 50 03 3f 80 08 cf 3e 0b 3e 03 3f
       -0.17878498 0.512941 0.40436172 0.51266545
000150 0b 79 d6 be 2e e6 5f bc 1b 4c 2e 3d 2f 7e 5c 3e
       -0.41889223 -0.013665719 0.04255305 0.2153251
000160 99 d2 86 3e cb 8a 96 3e ca f9 02 bd ad 40 8c 3e
       0.26332548 0.29402766 -0.0319765 0.27393094
000170 4e 9e 90 bd f5 4c ad 3d 1a c4 84 3e 87 90 55 be
       -0.07061444 0.08461944 0.25930864 -0.20855914
000180 15 5f 64 bf 34 94 53 c0 07 e0 d1 3e 9c 9b 85 3f
       -0.89207584 -3.3059206 0.40991232 1.0438113
000190 2e ef cc bc be 84 64 be f1 6a 25 3e 6f 28 86 be
       -0.025016394 -0.22316262 0.16154076 -0.26202723
0001a0 cb 51 6b 3f d2 2d 73 3d d3 9a 1e bf 93 3c a2 3d
       0.9192168 0.05936987 -0.61954993 0.0792171
0001b0 5d 7c a7 3e 51 55 d5 3e 93 c1 02 3e bc 73 ae bd
       0.3271207 0.41666654 0.12769155 -0.08518168
0001c0 dd d7 45 be 72 df e3 3d ac b2 12 be 14 eb 57 be
       -0.19320627 0.11126603 -0.1432597 -0.21085769
0001d0 8a d5 c3 3c d9 a6 14 3e 41 9e 2a be c1 83 f3 bd
       0.023905534 0.14516772 -0.16661932 -0.118903644
0001e0 7d 10 1e 3e 53 88 dc 3f 8a 87 79 be 5a a9 07 be
       0.15435977 1.7229103 -0.2436811 -0.13248196
0001f0 ff c3 84 3e 64 23 7e 3f 98 4e c7 be 93 2a 9f bf
       0.25930783 0.9927275 -0.3892715 -1.2434868
000200 73 80 1c 3e b3 1c c5 bd bb ee ea 3b e9 6b 7a 3e
       0.15283374 -0.096246146 0.007169572 0.24455227
000210 4c 81 42 bf 79 ce ce be 6b c7 36 be d4 67 90 be
       -0.7597854 -0.403919 -0.1784951 -0.28204215
000220 15 94 a7 be b7 da 1d bd 09 de a3 be ea 2e b2 3c
       -0.32730165 -0.03853866 -0.32005337 0.021750886
000230 99 8d 87 be 0f 0f dc be f6 4a 88 be ff b3 c7 be
       -0.26475218 -0.4298024 -0.2661969 -0.39004514
000240 76 f2 4f bf 9f 1b a9 3f c3 7e 9b be 33 cd 82 3e
       -0.8122934 1.3211554 -0.3037015 0.2554718
000250 d2 be 5b bd 9c d4 8c bf 26 55 fd 3d 74 4c 74 3f
       -0.053648777 -1.1002383 0.123697564 0.9542916
000260 71 95 66 bf 67 5f 3f 3e 0a ad 12 bf 90 fb db 3e
       -0.9007178 0.18688737 -0.57295287 0.42965364
000270 31 24 b4 bf f5 4c 9a bf 9d 30 4d 3d f4 93 ef 3d
       -1.4073545 -1.2054735 0.05009519 0.11698142
000280 e9 c9 a6 bd 57 75 dd 3b 28 14 1f 3e 1c 54 e6 bd
       -0.0814398 0.0067583728 0.15535033 -0.11246511
000290 b1 9a d9 bd 94 f9 2d bc fd ee 83 3d 08 2a 37 3e
       -0.10625208 -0.010618586 0.06442068 0.17887127
0002a0 80 36 c3 3f 25 35 45 40 67 9e b8 be 8e dc 8d bf
       1.5251007 3.0813687 -0.3605835 -1.1082933
0002b0 07 c7 ec be 85 fb 31 bf 50 2f c6 be 7b 8a 67 be
       -0.46245596 -0.69524413 -0.38707972 -0.2261142
0002c0 98 bb 21 bf dc d8 7e 3f 73 a1 2b be dc c4 29 bf
       -0.6317687 0.9954965 -0.16760807 -0.6631601
0002d0 07 e0 a8 3d 07 b9 ca 3c a7 46 69 3e 4e dc 98 3d
       0.08245855 0.024746431 0.22780858 0.07463895
0002e0 bd 95 e3 3d 35 58 f9 bd 7c 60 1a 3e b9 44 9c bd
       0.11112545 -0.12175027 0.15075868 -0.07630295
0002f0 95 20 0f 3e 8e d6 7b 3d 2c 6e 06 bd 43 84 37 be
       0.13977273 0.061483912 -0.03281991 -0.17921548
000300 ce 5b 09 be 46 06 2c bf fd 0a 54 3e 31 7f 3c c0
       -0.13413927 -0.6719707 0.20707317 -2.9452631
000310 6d 57 b6 3e c7 ad b4 bf d9 41 c8 bd 89 93 84 3e
       0.35613576 -1.4115533 -0.097781844 0.2589381
000320 d5 8a 49 bf 91 8a b3 3e be 03 f1 3d 03 01 24 bf
       -0.78727466 0.35066655 0.11768292 -0.64064044
000330 7c 87 6b 3e 40 53 fb be 82 a0 0a 3e b8 0c 62 3e
       0.23000902 -0.49086952 0.13537791 0.22075164
000340 b3 2b 1f be 52 55 ce bd 5b d3 31 3e bd a6 36 3d
       -0.15544014 -0.10074867 0.17365782 0.044592608
000350 31 7c fd bd 5e c2 2b be 57 a2 61 3e e0 de 40 3d
       -0.12377203 -0.16773364 0.22034584 0.04708755
000360 d5 32 b2 3f dd 40 0b 40 8b fa 27 bd e0 1c 9b 3f
       1.3921763 2.175834 -0.04101042 1.2118187
000370 ff 94 99 be ae 32 92 bd d0 38 9c be 20 1d 63 3d
       -0.29996487 -0.07138573 -0.30512094 0.055447698
000380 3f 45 74 be 66 a9 2d 3f 9a 16 82 3c f5 5a ac 3e
       -0.2385454 0.67836607 0.015879918 0.33663145
000390 6a 8f 1e 3f f6 d8 a2 be 5e 00 e2 3d 2a 0f 3e bd
       0.6193758 -0.31806153 0.11035226 -0.04640118
0003a0 30 ff 14 3e 14 39 02 3e d4 50 79 3e 8e eb 17 bd
       0.14550471 0.12717086 0.2434724 -0.037089877
0003b0 64 18 35 3e ae 41 ae 3d c1 5e 62 3d 36 f4 20 bd
       0.17685086 0.08508621 0.055266146 -0.039295398
0003c0 ac e3 13 bf bd 3a 26 3f 96 31 fa 3d 00 c4 61 bf
       -0.57769275 0.6493338 0.12216489 -0.881897
0003d0 02 bc a1 bd 4a bb 50 3f 60 43 96 bf 7d 68 ad bf
       -0.07897188 0.8153578 -1.1739311 -1.3547512
0003e0 6f 55 ac 3f 4c b1 62 3f 7b a7 39 3f dc dd b1 be
       1.3463572 0.88551784 0.7252118 -0.34739578
0003f0 d9 08 c4 bc 27 4c 23 bf 08 37 6a 3e 5e 35 97 3e
       -0.02393 -0.63788074 0.22872555 0.29532903

actor.0.bias f4 [64]
000000 ff b3 78 3e 51 ce a9 bd f7 4f d1 3c 4a c7 64 3d
       0.24287413 -0.08291305 0.025550826 0.05585412
000010 69 2a 2d 3e d5 45 45 be 6a e8 6c bc b2 77 93 be
       0.1691071 -0.1926492 -0.014459709 -0.28802258
000020 00 9a cb bd 13 0b 88 be 48 5c be be 34 6d f8 bd
       -0.099414825 -0.2657095 -0.3717978 -0.12130204
000030 f3 ff 9c 3d 96 ab 38 be b8 80 94 be 3d b4 26 be
       0.07666006 -0.18034205 -0.29004455 -0.16279693
000040 ca 79 a0 3e d5 aa a6 be 41 5a 4a 3e 7a ee a1 3d
       0.31342918 -0.3255221 0.19760992 0.07906814
000050 08 20 4f 3c 26 3d 28 be f2 23 83 bd 1d 76 e5 bc
       0.012641914 -0.16429576 -0.064033404 -0.028010422
000060 03 a6 31 bd 1b 4a c0 bd de 95 e0 bd d2 7a 78 3e
       -0.04337121 -0.093891345 -0.10966085 0.24265602
000070 9a 12 fb bd 18 1e 5b be 03 37 b5 bd 00 13 02 3e
       -0.12259407 -0.21398199 -0.08848383 0.1270256
000080 38 63 2f be 11 17 80 bc 5e 2b a4 bd 8a fc 82 be
       -0.17127693 -0.015635999 -0.08016084 -0.25583297
000090 3b ae e7 be f1 d9 9b 3e 73 95 a3 3d a7 93 14 3d
       -0.45250115 0.30439714 0.079874896 0.036273625
0000a0 51 a9 32 bd b3 31 80 be 32 2c 6b be 2f dc 1a 3e
       -0.043618504 -0.25037917 -0.22966078 0.15123056
0000b0 f2 a4 bd 3e 6e d4 4c 3e 4d 57 1a 3e e4 fe 65 be
       0.37039906 0.2000291 0.15072365 -0.22460514
0000c0 f9 a7 fb 3d a3 bd c7 bd 55 d2 91 3e 3a 3c e8 be
       0.122878976 -0.09752967 0.28480783 -0.4535845
0000d0 79 14 df be e7 73 5c bd c1 0c dc bd 04 4f 11 3d
       -0.43570307 -0.05382147 -0.1074462 0.035475746
0000e0 af 5b 41 3c b3 88 07 3d 0a d8 34 be 26 18 92 bc
       0.011801644 0.03308935 -0.17660537 -0.01783378
0000f0 4c f8 81 bd d8 a2 87 3c f5 ce 8e 3e 19 c3 85 be
       -0.06346187 0.016557142 0.2789227 -0.2612541

actor.2.weight f4 [32, 64]
000000 1e 83 6d 3f 79 1b ba be f8 98 44 3c fc 1a 47 be
       0.92778194 -0.36349085 0.011999361 -0.19443887
000010 8c 1c 09 3e f6 c5 2c be 59 52 00 bf 81 a3 8b bc
       0.13389796 -0.16872391 -0.5012565 -0.017045738
000020 7f 98 61 bf f7 11 cd 3e 75 fe 4f bf 33 65 71 3f
       -0.88123316 0.4005277 -0.81247646 0.9429504
000030 42 65 d4 3e c6 76 b6 be 97 46 99 be ac 8b 17 3f
       0.41483504 -0.35637492 -0.29936668 0.591975
000040 25 3a 52 3e c4 bf c1 bc 4c b5 e4 bd 0a 19 07 3f
       0.20529993 -0.023651011 -0.11167392 0.5277258
000050 e7 f9 78 be ec b3 77 be 95 d3 1d bf 65 00 18 3f
       -0.2431408 -0.24189728 -0.61650974 0.593756
000060 1f 97 60 be f1 32 2b 3f 20 21 50 be 7d ce 33 bf
       -0.21932648 0.66874605 -0.20325136 -0.7023695
000070 be 5e f5 bd c8 b5 1f 3f 5e a5 f0 3e d6 3f 7e 3f
       -0.11980961 0.6238675 0.47001165 0.99316156
000080 43 0b be 3d 35 86 1f bf de a6 0d bf db 30 10 3f
       0.09279492 -0.6231416 -0.55332744 0.5632455
000090 89 77 c3 bc 3d 74 dd 3e 89 dd 32 bf 31 d2 c8 3c
       -0.02386071 0.43252745 -0.69869286 0.02451429
0000a0 db 23 90 bf ea 29 07 3f 9c 64 15 3e 1c 26 b4 bd
       -1.1260942 0.5279833 0.1458916 -0.08796331
0000b0 d5 61 47 bf a4 a2 f3 bf 4b 6c 96 be aa 23 e5 bd
       -0.77883655 -1.9034009 -0.29379496 -0.11188443
0000c0 a4 05 5f 3e fb bf e0 3e 9b ac 05 bf 74 80 24 3e
       0.21779495 0.4389647 -0.522165 0.16064626
0000d0 3d 75 ce bd e0 62 04 3d 4a 83 80 be 8a fa 62 3f
       -0.10080955 0.032320857 -0.25100166 0.8866354
0000e0 1a 97 01 3e ff d6 8b be 9c 2e 75 3d a4 5d 85 3e
       0.12655297 -0.27312467 0.059858903 0.26048005
0000f0 ec d4 b3 be 22 08 8c bf 48 5b b6 3e d4 01 f9 3d
       -0.35123384 -1.0939982 0.35616517 0.12158552
000100 83 b5 f3 be 77 df fe 3d d3 84 9e 3e 08 d1 b3 3e
       -0.4759942 0.12444966 0.30960712 0.35120416
000110 4f d4 67 3e 2e c1 a8 3b db cd 0d 3f 5f b4 2d bf
       0.22639583 0.005149982 0.55392236 -0.6785335
000120 a5 0e 0e be a7 74 79 bf d2 06 e8 3e e1 9e 50 3f
       -0.13872774 -0.9744362 0.45317703 0.8149243
000130 03 91 26 bf 7f c5 ae 3e 27 15 8f 3e 8b 47 d0 3f
       -0.6506502 0.34135053 0.27945825 1.6271833
000140 a3 91 26 be 25 b7 da 3e 6f 2d f7 3e bd 8f bb be
       -0.16266493 0.42717853 0.4827685 -0.366331
000150 1c d9 01 3f 12 4c 0a bf 08 8c a2 be 24 d9 66 be
       0.5072191 -0.54022324 -0.3174746 -0.2254377
000160 b9 32 0f bf 01 67 a5 be 7a 6f 25 3d ae a0 96 3f
       -0.5593677 -0.32305148 0.040389515 1.1767786
000170 c5 58 a2 bb 23 1c 2d bf 6c c1 f6 3e d8 88 25 bf
       -0.00495443 -0.6762106 0.48194444 -0.6466193
000180 a9 23 92 3e 15 9e 49 bf ff ca a3 be e9 8c 37 be
       0.28542832 -0.7875684 -0.3199081 -0.17924847
000190 db 76 b7 bd 2d 06 f6 3d f3 3f 91 3e 11 89 c3 be
       -0.08958217 0.12012897 0.28369102 -0.3819051
0001a0 66 d3 e2 3d f9 e7 49 3f 93 c0 9e bb 78 e5 92 be
       0.11075477 0.7886959 -0.004844734 -0.28690696
0001b0 d4 1b 9d 3e 0d 4d c5 3e 12 a3 32 bf 92 2d c9 bc
       0.30685294 0.38535348 -0.69780076 -0.024557862
0001c0 fc 54 4e bf 1b a3 09 bf 64 03 e9 3e fc 1b 4a 3f
       -0.80598426 -0.53764504 0.455104 0.7894895
0001d0 3b 89 69 be b5 50 a4 3f 79 2d 02 bf 06 bd 89 bf
       -0.22806256 1.283713 -0.50850636 -1.076081
0001e0 ce 16 0d 3e 9b 86 91 be 56 5c 21 3f 9a fa 91 3c
       0.1377823 -0.28423008 0.6303152 0.017819691
0001f0 ad d1 8d bb d0 c2 39 bf 70 1f 0f be c5 7b d2 3d
       -0.004327974 -0.72562885 -0.13976836 0.102775134
000200 f6 82 15 3f 9a 5e c5 3e 2c af 8a bf ae b4 cb be
       0.58402956 0.38548738 -1.0834708 -0.39786285
000210 a1 87 3f be 73 78 2a 3d 7b a6 f9 3e df 4d 3b 3f
       -0.18704082 0.041618776 0.48759827 0.73165697
000220 5f 51 6e 3e 8c 50 1d 3f ae 82 18 bf 11 68 bb 3e
       0.23273228 0.6145103 -0.595744 0.36602834
000230 38 2c 26 be f7 eb 07 3f 7e ec cc be 01 f1 66 bf
       -0.16227806 0.5309443 -0.4002418 -0.9021149
000240 f8 20 c2 3d be d4 39 3f 37 a7 9b 3d 3f 1d 86 be
       0.094789445 0.72590244 0.07600253 -0.26194188
000250 ec 84 af be 5e 01 95 3e 63 4c 87 bf 10 cb ba bd
       -0.342811 0.29102606 -1.0570186 -0.09120762
000260 47 a8 be 3e 21 9e 00 bf cf 7c 39 bf bd 35 5f 3f
       0.3723776 -0.50241286 -0.7245607 0.87191373
000270 8a 38 8b 3e b1 b4 32 3f 70 5e 95 bf d6 1d 07 3f
       0.27191573 0.69806963 -1.1669445 0.527799
000280 9f 69 01 be 12 6e e6 bc 5a 8b 27 3f 05 1b 0f bf
       -0.12637947 -0.028128657 0.6544701 -0.55900604
000290 b2 82 2a 3f 47 b8 db bf 5d c4 08 bf 2e 3c b9 3d
       0.66605675 -1.7165612 -0.53424627 0.090446815
0002a0 6d 05 68 3f 3a 74 3d bd 4a f1 54 bf 78 e7 e7 be
       0.9063328 -0.04625342 -0.8318068 -0.45293784
0002b0 4e cc 65 be 92 f5 92 3f 90 61 d0 be 09 72 cc 3f
       -0.22441217 1.1481192 -0.40699434 1.5972301
0002c0 e2 56 a7 be cb 6c e1 be a7 fb d0 3e e0 6c 28 3d
       -0.32683474 -0.44028315 0.40816996 0.041119456
0002d0 ed 63 aa be 82 82 4f bf 4f c4 34 bf c7 31 a3 3e
       -0.33279362 -0.81058514 -0.70612043 0.31873915
0002e0 66 b4 d9 3d 79 c2 35 3e 6f e9 ab 3e d1 38 fb be
       0.106301114 0.17749967 0.33576533 -0.49066785
0002f0 ea 05 83 3e 95 2a 32 3f 3f 0c 0d 3f a4 ab 4d 3e
       0.2559045 0.69596225 0.5509681 0.20085007
000300 a2 6d 95 3f ff 85 d6 be 4c 14 bc be 4f d2 d7 bd
       1.1674082 -0.41899106 -0.36734235 -0.1053816
000310 d9 42 02 3f 8e db 3f 3e aa 13 4d 3f 91 6c d1 bf
       0.5088325 0.18736097 0.8010813 -1.6361257
000320 f3 b2 c3 be 94 bf 24 bf 9a 12 f9 3d a9 5c 00 3f
       -0.38222465 -0.64354825 0.12161751 0.5014139
000330 fe e5 85 3e a9 5d ed 3b 49 68 ee be 68 67 64 3f
       0.26152033 0.007243831 -0.46563938 0.89220285
000340 d9 4d 95 be a3 a4 4a be a3 0d 9b 3e 96 e8 90 be
       -0.29160956 -0.19789366 0.30283841 -0.2830245
000350 e4 c4 a2 be df 69 c0 bd ac e0 dc 3e c1 a1 18 3e
       -0.3179084 -0.09395193 0.4314016 0.14905454
000360 19 fb b9 be 9a 04 8d be 3c 97 04 bf 89 fb bc 3d
       -0.36324385 -0.27542573 -0.51793265 0.09227664
000370 33 de ee 3d 88 0c 06 bf 7b 4f 1c bf dd 84 73 3f
       0.11663475 -0.5236287 -0.6105878 0.9512461
000380 48 a0 07 bf a9 b1 b1 bf 31 4f bb be 1a df ca be
       -0.52978945 -1.3882343 -0.36583856 -0.39623338
000390 9a 7b 1f 3f a0 3d bc be cf e3 33 3f 9e ef 91 be
       0.62297976 -0.36765766 0.70269483 -0.28503126
0003a0 1f 28 41 3f 2e f5 0c 3f b8 68 ff be 61 e3 1c bf
       0.75451845 0.55061615 -0.49884582 -0.6128445
0003b0 97 8c 4b be 87 28 20 3f c3 c7 e9 be 9e e7 2e be
       -0.1987785 0.6256184 -0.4566022 -0.17080542
0003c0 ff de 52 bd 9f 56 85 bd 30 08 c8 3e 74 30 72 bd
       -0.051482197 -0.06510662 0.39068747 -0.05912824
0003d0 b1 b4 ac 3e b6 78 9f 3e e9 7f 39 bd d0 37 ee be
       0.33731607 0.31146783 -0.045288 -0.46526957
0003e0 bd 6b bc 3e c3 27 76 3f 7e e8 af 3e a7 96 51 bf
       0.36800948 0.9615442 0.34357065 -0.818705
0003f0 0f 8b b5 3e f5 2a 1f bf 08 e3 22 3f 0d 4f b2 be
       0.35457656 -0.6217492 0.6362767 -0.34825936

actor.2.bias f4 [32]
000000 d9 6b cd be 24 64 0b 3e 0b 38 53 3e ce ed 81 bd
       -0.40121344 0.1361242 0.20626847 -0.06344186
000010 37 c7 38 bc 0e c5 d6 be 15 bf 47 3e e0 de 9f 3d
       -0.011277965 -0.41947216 0.19506486 0.07806182
000020 91 ca 94 be fb 39 92 3e a6 4c 29 bd e2 d5 10 be
       -0.29060796 0.2855986 -0.041332863 -0.1414409
000030 a8 ac 06 bd 15 af 01 3f 94 22 f0 be 53 d7 90 bd
       -0.0328795 0.5065778 -0.4690138 -0.0707232
000040 e9 d1 c8 be f7 35 61 be 32 f6 29 3e 72 4b b7 3d
       -0.3922265 -0.21993242 0.16597822 0.08949937
000050 71 92 67 3e 65 99 0b bf 2e 1d 80 be 89 12 f1 3d
       0.22614457 -0.54530936 -0.25022262 0.117711134
000060 22 34 8d be b5 aa bb be 00 3e 91 3e 27 27 0d be
       -0.27578837 -0.36653677 0.28367615 -0.13784467
000070 d6 9e 99 3e 75 86 7a 3d 75 9e 33 3e 91 0c ac be
       0.30003995 0.061163384 0.17540915 -0.33603337

actor.4.weight f4 [4, 32]
000000 f6 bc a4 bf ed a1 13 bf 4a c7 3e 3f b6 4b ff bd
       -1.2870166 -0.57668954 0.7452284 -0.124656126
000010 c7 d4 04 bd 14 28 b7 bf ce fc d7 3f f1 79 c3 3f
       -0.032429483 -1.4309106 1.6874025 1.5271589
000020 35 c1 94 bf 83 d1 15 bf bf f0 b3 3f cf eb 44 3f
       -1.1621462 -0.58522815 1.4057845 0.76922315
000030 3a fb c3 3f 68 33 2f 3f 62 60 c5 3e e4 c9 24 3f
       1.5311043 0.68437815 0.38550097 0.6437056
000040 36 db b9 3e 62 40 67 3f 2c a6 8f bf ae f1 e3 bf
       0.36300057 0.90332615 -1.1222587 -1.780813
000050 72 c8 b8 3f e4 6a b7 bf f2 6d 1c bf 91 c2 f1 3f
       1.4436171 -1.4329495 -0.61105263 1.8887502
000060 bb 16 61 bf 03 5a 36 3f b6 1c c1 be 00 53 8d be
       -0.8792531 0.71231097 -0.37717217 -0.27602386
000070 08 34 e9 bb e7 0b d6 3f c2 7c 5b bf 59 03 9e 3f
       -0.0071167983 1.6722382 -0.8573724 1.2344772
000080 fb b9 14 be 75 82 c6 3f 4c b1 d0 3f e8 d9 e3 3f
       -0.14524071 1.5508562 1.6304107 1.7800875
000090 83 c7 4f 3f c4 3e c7 be 9a b0 e3 be b5 86 6c bf
       0.81163806 -0.38915074 -0.44470674 -0.92393047
0000a0 f0 23 91 bf 5e c8 00 40 02 80 62 be fe 1a 28 bf
       -1.1339092 2.0122294 -0.22119144 -0.65666187
0000b0 ad 08 91 3f 4e e7 ab bc d1 01 ea 3d 45 ca 1b bf
       1.1330773 -0.020984318 0.11426128 -0.60855514
0000c0 45 97 b0 3f ba 45 3e 3f d6 95 8c bf 29 5c a0 bf
       1.3796164 0.74325144 -1.0983226 -1.2528125
0000d0 78 f1 a0 bf 7e c1 a4 bd cc a7 44 bf b3 5a 0a be
       -1.257369 -0.08044718 -0.7681854 -0.13511162
0000e0 a5 d8 95 bf 8b 81 f1 be 58 9c 05 c0 2c 77 ae 3f
       -1.170674 -0.47169146 -2.0876675 1.3630118
0000f0 2e c9 92 3f da 4c a4 3f 4a 05 a5 bf 79 13 4b be
       1.1467645 1.2835953 -1.2892239 -0.19831647
000100 8d a7 93 bf e3 74 ad 3e 7c 46 80 3f 65 be 57 bf
       -1.1535507 0.3387824 1.002151 -0.84274894
000110 d4 36 7b bf ec a0 8f bf a5 33 98 3e ec 84 12 3f
       -0.98130536 -1.1220984 0.29726902 0.5723407
000120 29 76 85 3f e9 5e 9c 3e be 77 42 bf ab 8d 0e c0
       1.0426685 0.3054116 -0.7596396 -2.2273967
000130 e7 01 06 bf 00 48 af 3f 97 9e c2 bf 3f 47 c9 3f
       -0.5234665 1.3693848 -1.5204648 1.5724868
000140 bd 54 8b bf 5b a6 79 3f dd b6 d9 3f e6 87 c0 bc
       -1.0885235 0.97519463 1.700893 -0.023502301
000150 d1 35 d8 be a4 54 db be fc 2d 82 be ec 34 55 3f
       -0.4222856 -0.42838013 -0.25425708 0.8328388
000160 00 b7 9c 3f bb 0f e9 3e 56 ed 39 be d8 aa e9 be
       1.2243347 0.45519814 -0.18156943 -0.45638156
000170 99 c9 75 be d6 c7 71 3e c8 2a 9e bf a2 93 64 bf
       -0.24002685 0.23611388 -1.2356806 -0.8928777
000180 42 a5 3f bf 06 0e 23 bf b7 93 50 3f 8a 58 72 3f
       -0.7486154 -0.63693273 0.81475395 0.9466635
000190 c9 09 7a 3f f2 63 c6 be 9c 89 7a bd 09 c3 8d 3f
       0.9767118 -0.38748127 -0.06116639 1.1075145
0001a0 12 94 85 be f4 b4 0a bf b7 bf 81 bf d8 0b 4e 3f
       -0.2608953 -0.5418236 -1.0136632 0.8048682
0001b0 0e 92 50 c0 a4 c8 39 3f 5d 45 90 bf eb 34 b5 bf
       -3.2589145 0.7257178 -1.1271168 -1.4156774
0001c0 64 4d b8 3f fb 53 03 bf 0c 3c 93 bf 63 cc 2a bf
       1.4398618 -0.5130002 -1.15027 -0.6671812
0001d0 d8 2d 26 bf ce f0 a5 bf 67 5b 3a 3f 01 5a e9 bf
       -0.649137 -1.2964113 0.7279572 -1.8230592
0001e0 bc 7f 32 bf 50 36 ec bf 8d 84 bb 3e e1 35 92 3f
       -0.6972616 -1.8454075 0.36624566 1.1422693
0001f0 65 fa 61 bf 60 52 6e 3f 39 95 bf bf e2 3f bd 3f
       -0.88272697 0.93094444 -1.4967414 1.478512

actor.4.bias f4 [4]
000000 10 1d eb 3e 59 d3 e6 3d 23 16 89 3b 04 00 23 3f
       0.4592061 0.1127078 0.004183547 0.636719

critic.0.weight f4 [64, 24]
000000 5a 81 9c 3e 3e b8 f1 be 5d 97 99 bf 78 cd c6 be
       0.30567437 -0.47210878 -1.1999317 -0.38828635
000010 8e be 6d be 32 1f c2 bc 5a 77 53 3e 39 0d f0 bc
       -0.23217222 -0.023696516 0.20650998 -0.02930318
000020 df 29 34 be 37 4f 49 be 72 f6 e8 bd c0 e7 d4 be
       -0.17594098 -0.19659124 -0.11375131 -0.4158306
000030 4e 69 50 3c cf 3f d0 bc 69 1c f9 bd 37 cf 86 3c
       0.012720419 -0.025421051 -0.12163622 0.01645623
000040 fd 92 51 3c e2 29 cb bc b6 2e 92 bd b3 86 ce bd
       0.012791392 -0.024800245 -0.07137816 -0.100842856
000050 25 f0 b6 bd 37 c6 9d be 47 69 42 be da c5 4e be
       -0.08932523 -0.30815288 -0.18985473 -0.20192662
000060 6b 11 c4 bf 74 89 16 3e 07 55 3e 3f 24 24 c5 3f
       -1.5317816 0.14700872 0.7434849 1.5401654
000070 c2 76 87 3e 0d a7 9f be af 3c bc 3e b9 0c 6a be
       0.26457793 -0.31182137 0.36765048 -0.22856416
000080 00 e3 30 3f 54 39 d0 bf c7 a3 9e bc 0f 15 8d be
       0.69096375 -1.6267495 -0.019365204 -0.2755513
000090 b4 24 ac 3e 1c ca 02 bf 15 be c7 3e 6b 82 1c 3e
       0.33621752 -0.51089644 0.3901221 0.15284126
0000a0 48 c6 4a 3e 63 e8 53 3e 3c ee ab 3e 9c 56 91 3e
       0.19802201 0.20694117 0.33580196 0.2838639
0000b0 4c a3 ac 3e 4b 65 0d 3e 37 48 11 3d 86 3b 1c 3f
       0.33718336 0.13808171 0.03546926 0.61028326
0000c0 bd 9a b0 3e 75 5e b1 be 55 6c b1 bf 92 0c c1 3f
       0.34493056 -0.34642377 -1.3861185 1.5081961
0000d0 72 6b 6e 3e 4c 3d 89 be 55 86 51 3f 9f 2e 88 3c
       0.23283175 -0.26804578 0.818456 0.016623793
0000e0 91 ad be be bd ee b2 be 2c a8 62 3e 01 87 96 3e
       -0.37241796 -0.34947768 0.22134465 0.29399875
0000f0 1f db 70 3e 77 83 6b 3e 9d c7 79 bc fc c2 88 3e
       0.23521088 0.22999369 -0.015245345 0.2671126
000100 ef 1c 22 3d 23 d6 83 3d 71 99 cc 3e e4 f6 f0 3e
       0.039578374 0.06437328 0.39960817 0.47063363
000110 79 73 fd 3e 2f 7c 10 bd de ea b9 3e 20 f8 d4 3e
       0.4950216 -0.03527468 0.36312002 0.41595554
000120 a0 8b ac bf 3b 4b d5 bf f1 01 ae 3f be 17 e5 bf
       -1.348011 -1.6663584 1.3594342 -1.789787
000130 ac c2 5c bf cd d6 17 be 7c fe aa bf 59 68 bc 3d
       -0.86234546 -0.14828034 -1.3358912 0.0919959
000140 e5 16 be bd 46 e2 15 be b4 03 09 3e d3 e2 92 be
       -0.092817105 -0.14637098 0.13380319 -0.28688678
000150 be 13 01 3e 61 09 81 3d a1 98 d0 3e 30 2a bf 3e
       0.12605187 0.06300617 0.40741447 0.37336874
000160 2f 10 a4 3e af a5 8a 3c 76 a2 b4 bc b0 ad 28 bd
       0.32043597 0.016924707 -0.022050124 -0.041181266
000170 03 c9 35 be 97 f2 12 bf 54 b1 b7 be 30 d9 f6 bd
       -0.17752461 -0.5740141 -0.35877478 -0.12053144
000180 b0 38 28 40 36 e3 03 40 b4 06 af bf 59 5c 38 3e
       2.62846 2.0607429 -1.3673921 0.18003978
000190 2d fb e6 3e ff 97 3f 3e 70 a8 dd 3f bb 59 b5 bc
       0.45113507 0.18710326 1.7317028 -0.022137513
0001a0 48 74 06 be aa 12 db be 48 a3 06 bc e5 c4 6f bd
       -0.13130295 -0.42787677 -0.00821764 -0.058537383
0001b0 cf 3f f1 3a d0 98 e6 bd d6 ea 7c be d2 a3 0c be
       0.0018405857 -0.112596154 -0.24698958 -0.13734367
0001c0 12 eb ee bd 66 99 c4 3c 5a a9 e9 3d a4 09 27 3e
       -0.1166593 0.023998927 0.11409254 0.16312271
0001d0 d4 36 2a 3e 35 ad 21 3f 3d 64 bf 3e f2 9c b5 ba
       0.16622478 0.6315492 0.37381163 -0.0013855977
0001e0 f7 0a 05 40 17 c8 87 40 97 9c ae be c3 ed a5 3d
       2.0787942 4.243175 -0.34103844 0.0810199
0001f0 c7 8e 90 3f ef 26 f2 bd 08 41 37 3f 91 7b a9 3d
       1.1293572 -0.11823832 0.71583605 0.082755215
000200 3f b7 63 bd 18 19 07 bf a9 40 31 3e 1b 2a 90 3d
       -0.05559468 -0.52772665 0.17309822 0.07039281
000210 b7 99 f9 3c e8 e9 18 3f 33 68 d6 be dc 35 07 bf
       0.030468805 0.5973191 -0.41876373 -0.5281656
000220 4f d0 4f be a6 0a 19 bd 60 63 92 3d 3d ee 95 bc
       -0.20294307 -0.03736367 0.071478605 -0.018302077
000230 8f db 48 3e 66 18 e2 3e c1 dd 7d 3e 2b 8f fe 3d
       0.19615005 0.4415924 0.24791624 0.12429651
000240 b0 9a 45 be 1e 63 94 40 09 94 24 3f 4d 61 f2 bf
       -0.1929729 4.6370993 0.64288384 -1.8935944
000250 0e a4 8e 3f 75 4d 52 be 56 27 a5 bd fc 9a 2b bd
       1.1143816 -0.2053736 -0.08064143 -0.04189585
000260 af a9 ef 3d c6 3f 1d bf 31 ff 2a 3f 95 1f 32 bd
       0.117022865 -0.61425436 0.6679564 -0.04348715
000270 d0 25 fd bc 38 5e f2 3f 3c 97 53 bf 63 f9 4e bf
       -0.03090182 1.8935003 -0.8265264 -0.80849284
000280 95 63 31 bf 44 19 e7 be a8 29 0e bf e0 d4 a9 bd
       -0.69292575 -0.45136464 -0.5553231 -0.08292556
000290 75 f4 56 3c 45 98 12 3e a2 34 ed 3d 35 b0 8a 3e
       0.013119807 0.14315899 0.115823045 0.2708756
0002a0 41 90 6b be 77 1e c9 bf a0 e8 df 3e 41 9a b3 3f
       -0.23004247 -1.5712422 0.43732166 1.403145
0002b0 71 5d 31 bf d5 b2 64 3e c8 76 5c bf c4 25 3a 3e
       -0.69283205 0.22333844 -0.86118746 0.18178469
0002c0 77 e8 09 3f e5 fc 7f be 2b 2c 94 3e 52 70 59 bf
       0.5387034 -0.24998815 0.28939947 -0.8493701
0002d0 19 c4 84 3d de b6 b7 3d ce 83 9a 3e fe 6f cb 3e
       0.06482715 0.08970426 0.30178684 0.3973388
0002e0 29 83 ea 3c cb 36 a7 bd b1 8c 2f 3e f5 3b 30 be
       0.028626995 -0.08164748 0.17143513 -0.17210372
0002f0 04 46 63 be bd d3 cd be 71 13 92 be d4 f2 82 be
       -0.22194678 -0.40200606 -0.28530458 -0.25575888
000300 30 51 91 3d 3e aa c6 3f 43 9e 34 3f 83 1f 4a bf
       0.070955634 1.5520704 0.7055399 -0.78954333
000310 bf 3a 20 3e 6b 85 07 3d 4d 4f e2 be e3 85 85 3e
       0.1564741 0.03308622 -0.44201127 0.2607871
000320 2d 9a 11 bf 6c 80 07 bf 6d 12 07 3d 56 a5 93 be
       -0.5687588 -0.5293033 0.032976557 -0.2883708
000330 a0 f7 02 3e 3e 07 88 be 53 6b e6 be e6 b9 0c bf
       0.12789774 -0.26568025 -0.45003757 -0.5497116
000340 4c 48 18 bf 32 fe d7 be 58 70 0b be 10 23 b1 be
       -0.59485316 -0.42186123 -0.13617074 -0.34597063
000350 a5 9c 2f be 25 6a 2e bd e0 23 7c 3d 31 ac d1 3e
       -0.17149599 -0.042581696 0.06155765 0.40951684
000360 16 b7 0f 3c 5b 5b 22 3f 64 ee 29 bd 70 7c c9 3e
       0.008771678 0.6342065 -0.041487113 0.3935275
000370 3e ef 16 3e 76 28 9f be 3b fe 31 3c c1 8e 08 3f
       0.14739701 -0.31085557 0.010863836 0.53342825
000380 f8 00 97 3e 8c cb bc 3d bb 65 0d 3e c0 5c 5a 3e
       0.29492927 0.09218511 0.13808338 0.21324444
000390 e3 83 e7 3d 30 b1 b8 3b e1 f0 5a be fb aa 93 bd
       0.11304452 0.005636357 -0.2138095 -0.07210346
0003a0 9e b2 7d be 89 75 55 be ce d0 31 be 34 c1 24 bc
       -0.24775168 -0.20845617 -0.17364809 -0.010055829
0003b0 1c 97 04 3e 67 c9 7b 3e 13 c8 70 3e 95 9f 22 bd
       0.12948269 0.24588548 0.23513822 -0.03970297
0003c0 61 21 4f bf f2 86 f0 c0 54 cf 5f 3f 6b b0 89 bf
       -0.8091031 -7.516473 0.8742573 -1.0756963
0003d0 ff 36 be 3d 2c 99 c1 be 9a c3 13 3f 62 be 4e be
       0.092878334 -0.37812173 0.5772034 -0.20189813
0003e0 e4 ce 0a 3e ad 66 aa bf 0f 82 e9 bd af 2f ce be
       0.13555485 -1.3312584 -0.1140176 -0.40270755
0003f0 e4 62 23 bd d8 c9 8b 3d 03 f9 56 be 24 c5 2b bc
       -0.03988923 0.06825608 -0.20993428 -0.010484014

critic.0.bias f4 [64]
000000 c8 f7 06 bd 96 90 0b 3f 11 3d e6 3e 0f 79 12 3e
       -0.032951146 0.54517496 0.44968465 0.14303993
000010 88 5b d4 bd 54 ed 2c bd fc 57 a9 3e da 74 b3 3c
       -0.10369021 -0.04221852 0.3307494 0.021906305
000020 2e 17 0a 3f ae c6 e8 be 73 fe ef 3e c0 58 56 3e
       0.5394162 -0.4546408 0.46873817 0.20932293
000030 6f 4e c4 3d 0e 59 05 bf 8b 86 34 bf 76 83 0e be
       0.095852725 -0.5208901 -0.70517796 -0.13917336
000040 30 ed 89 3f 81 d4 cb be 8b 6a eb 3d a2 e2 b0 bd
       1.0775509 -0.39810565 0.11494931 -0.08636977
000050 f3 c2 c1 be 69 e2 7c 3c 1d 8c 6e bd 3e 9a 63 3f
       -0.37844047 0.01543484 -0.05823909 0.8890723
000060 d7 02 80 3c 96 2c 0e 3f 49 c4 86 be 7a 27 08 3f
       0.015626354 0.5553678 -0.2632163 0.53185236
000070 03 37 1f 3e 6e 8e 34 bf 6e db 02 be 23 0c 26 3f
       0.15548329 -0.7052983 -0.12779018 0.6486227
000080 4d d1 68 3f d6 38 56 bf ad 7b 5a bf 33 63 db 3e
       0.9094437 -0.83680475 -0.85344964 0.4284912
000090 e4 25 27 3d 17 96 04 3f 3c 10 0c 3f 1d ff 2e be
       0.04080762 0.5179152 0.5471227 -0.17089505
0000a0 46 d1 5f be 52 4b 48 bf dd a5 20 bf 1a d6 27 3f
       -0.21857175 -0.7823993 -0.6275309 0.6556107
0000b0 ee 33 08 bf 16 9f a8 3e 08 88 54 bb 5c 62 ba 3c
       -0.5320424 0.32933873 -0.0032429714 0.02275198
0000c0 16 ff e4 3d 95 83 35 be ca a9 26 3f 30 e5 d7 3e
       0.11181466 -0.17725976 0.6510283 0.42167044
0000d0 41 ed ad be ea a7 50 bf 31 30 0f bf 11 cb cb 3e
       -0.33970073 -0.81506217 -0.5593291 0.39803365
0000e0 3b df c8 3e b6 ec 2c bf 93 9d f5 bd 05 49 c3 be
       0.3923281 -0.6754869 -0.119929455 -0.38141647
0000f0 56 a1 5d bf cf 41 7f be 66 f6 dd be e7 12 1d bf
       -0.86574304 -0.24927448 -0.4335205 -0.6135697

critic.2.weight f4 [32, 64]
000000 55 b9 89 3e c5 2a 20 3d 8a 49 95 be 0d ee 0c 3e
       0.2689921 0.03910329 -0.29157668 0.13762684
000010 7b 8f 4e bf 7c 01 14 bf 78 7d 58 bd e6 6b fc bd
       -0.80687684 -0.57814765 -0.05285403 -0.123252675
000020 ac 7c a7 be 79 88 39 3e 52 4a b5 3d 7f a3 81 bd
       -0.32712305 0.18118466 0.08852066 -0.063300125
000030 71 38 58 bc 82 da 24 3f 3e 33 b0 be c9 4d f3 3d
       -0.01319705 0.64395916 -0.34414095 0.11880071
000040 d9 f7 19 bf 58 16 c7 bd 8c e7 e9 bd ff bf 31 bf
       -0.6014381 -0.097210586 -0.11421117 -0.6943359
000050 7e c6 25 3e 7f 6e 4d bd b5 82 08 3e c4 42 6a be
       0.16189 -0.050154205 0.13331111 -0.22877032
000060 7a bd 9c 3d 2f 72 e1 bc d1 b8 8c be 4e bd d3 be
       0.07653327 -0.027520267 -0.27484754 -0.41355366
000070 8a 24 20 bb a7 05 93 3f a8 7e 10 3e 51 ac f3 be
       -0.0024435841 1.14861 0.14110816 -0.47592404
000080 c2 f8 aa be a7 a8 ca 3e bf 83 b0 3e 21 e5 8a bc
       -0.33392912 0.39581797 0.34475514 -0.01695496
000090 52 b4 e1 bc 5a 50 f7 be 73 8d ac be f8 b8 71 bd
       -0.027551804 -0.4830349 -0.33701667 -0.05901429
0000a0 21 d5 1e 3f 92 43 89 3e bb ed 91 3e 3a 88 27 be
       0.6204396 0.26809365 0.28501686 -0.1636056
0000b0 e0 2a 1e 3f c5 08 67 3c b6 04 88 3e 5d 5e 15 be
       0.6178417 0.014101212 0.26566094 -0.14586778
0000c0 de 99 b9 3c d8 b1 99 3c 23 cc 08 be c6 d5 ab 3d
       0.022656377 0.01876156 -0.13359122 0.083903834
0000d0 9d a0 93 3e 76 f2 df 3e b4 36 2f 3e ed 69 06 bf
       0.28833476 0.4373967 0.17110711 -0.5250538
0000e0 f6 45 8f be d7 2e 9b 3e cb f5 f3 3d bb 24 d0 3d
       -0.27983063 0.30309173 0.11912116 0.10163256
0000f0 f7 87 15 3e 92 9f 5e 3d cf 3d d0 be e8 4d dd bd
       0.14602648 0.054351397 -0.40672156 -0.10805875
000100 3f a0 3d bd 9e 44 00 3f 13 7a 1a 3f db 8f 45 bf
       -0.0462954 0.501047 0.6034252 -0.7717263
000110 81 44 62 3f 86 7f 5a 3f 92 15 53 3d bc 9b e9 3d
       0.8838578 0.85350835 0.051534243 0.11406657
000120 ba 90 ae 3c 02 12 12 bf a4 f2 29 bf 06 bc 5b be
       0.021309245 -0.5705873 -0.66385865 -0.21458444
000130 d6 17 09 bf c2 da 3f bf 7c e6 94 be 7a 68 af be
       -0.53551996 -0.7494317 -0.29082096 -0.34259397
000140 7a 83 93 3f d5 97 a4 3e 1d 3c a7 3e ce e5 71 3f
       1.1524498 0.3214709 0.3266305 0.9449128
000150 0f fa bb 3d 04 00 b1 3e f3 a9 f8 3e 63 df 97 3f
       0.09178554 0.34570324 0.4856716 1.1865047
000160 ac 56 83 3e 01 77 c6 3e 88 19 84 3e a4 21 65 3f
       0.25652063 0.38762668 0.2580073 0.89504457
000170 94 5b e1 3d d5 41 7b be d9 c0 67 bc cd 64 6b bc
       0.11003795 -0.24536832 -0.0141451 -0.0143672945
000180 12 ed df 3e 34 ba fd be b3 f5 29 bf 14 cd 13 be
       0.43735558 -0.49556124 -0.6639053 -0.144337
000190 94 27 9f 3e 7b db 22 bc 0d ef e0 bd bd 22 4e bc
       0.31084883 -0.0099400235 -0.10983095 -0.012581524
0001a0 38 6d 0b bf 5a f8 d7 be 13 e1 08 bf bb 6d 02 3e
       -0.5446353 -0.42181665 -0.53468436 0.12737171
0001b0 ec 01 3e bf 3e c5 11 3f 89 22 c9 be f5 bf ec bd
       -0.7422168 0.5694159 -0.3928416 -0.115600504
0001c0 dd 7f 5c be a5 f7 84 3c 71 0a c1 3e e5 f2 96 3e
       -0.21533151 0.016231367 0.3770328 0.2948219
0001d0 52 93 48 bd cc d5 92 be 86 4c f3 bd b6 8b 09 3e
       -0.04896862 -0.2867874 -0.1187983 0.13432202
0001e0 75 74 46 3f 7e f5 50 bf 5a bf 09 3d c6 89 58 3e
       0.7752145 -0.8162459 0.033629753 0.21146306
0001f0 0d 6d b8 bd 5e 8e 5d 3f ac 1f 88 3e 49 ab fb 3d
       -0.09005175 0.8654536 0.26586664 0.122885294
000200 a7 6b d1 bb 3e d2 70 bc ae ad 93 3e 79 2f 21 bf
       -0.006391007 -0.014698563 0.28843445 -0.6296306
000210 d4 bc 1c 3f c7 dd 69 3f e4 a5 a9 3e 22 61 2e bf
       0.6122563 0.9135403 0.33134377 -0.6811696
000220 7d 82 a5 bd 0e 65 57 bf ef ee 0d bf e2 2d 17 be
       -0.08081529 -0.8413857 -0.5544271 -0.14763597
000230 fb 08 47 bd 23 d8 cf be 6f 70 40 3e 52 68 df bc
       -0.04859255 -0.40594587 0.1879289 -0.027271423
000240 ab a6 18 bd 24 f1 f6 be 5e 19 3a be 72 4a ac 3c
       -0.037268322 -0.4823085 -0.1817374 0.021031592
000250 96 8b 3c be 05 1f 13 bf 38 e5 ea bd a3 42 82 3e
       -0.18412623 -0.5746921 -0.11469501 0.25441465
000260 b8 40 90 3e 0a b5 0a be 04 c8 bf 3d 2f ce 21 3d
       0.28174376 -0.13545623 0.09364322 0.039503273
000270 f9 23 3a 3e 06 5e 9c bd 37 ad cc 3e 26 f3 2c 3e
       0.18177785 -0.07635121 0.39975902 0.16889629
000280 03 fd 48 bf 09 41 42 3f fa 1c 12 be b4 bb 91 3c
       -0.78511065 0.75880486 -0.14268866 0.0177897
000290 53 7a 3f 3e ca bc 9e 3d 6b 46 e6 be 21 64 a9 be
       0.18699007 0.077508524 -0.449756 -0.33084205
0002a0 c2 99 3c 3f f8 bb 5c 3e 1e bf 67 3e 4a 16 04 bf
       0.73672116 0.2155608 0.22631499 -0.5159651
0002b0 38 d7 1a 3f 47 4f 1d bf 11 7c 19 3d fb 7b 62 be
       0.6048465 -0.6144909 0.037471835 -0.22117607
0002c0 47 31 44 bf b3 c1 14 bf dc b9 ea 3e a2 ac 03 3d
       -0.7663769 -0.5810806 0.45844924 0.032147057
0002d0 de 3f 2c bf 87 71 cb 3e d9 23 e3 bd fd 03 85 be
       -0.67284954 0.39735052 -0.11090822 -0.25979605
0002e0 91 7c a8 3e b9 03 1f 3f a0 86 12 bc 1b 29 2d bf
       0.32907537 0.62115055 -0.00894323 -0.67640847
0002f0 40 12 bc be 2b 68 1f bf 09 13 0d 3f be 8f f9 3d
       -0.36732674 -0.6226832 0.5510717 0.1218562
000300 0e 53 73 3e f0 cf 8a be 60 f9 13 3e 10 83 13 3b
       0.23762152 -0.2711177 0.14450598 0.002250854
000310 16 38 2f 3d 7f e7 11 3e ce 73 5e be 4b 43 09 3e
       0.042778097 0.14248465 -0.21723863 0.13404576
000320 89 c5 24 be e6 72 a4 3e df 22 9f 3d 35 f3 84 3b
       -0.16090979 0.3211891 0.07770323 0.004057313
000330 5f 77 2d bf a2 b6 e4 3e ef f7 0e 3e 87 3f 3e be
       -0.6776027 0.44670588 0.13961767 -0.18578921
000340 4f ec b0 3e a7 54 70 3e a3 c4 ed be d6 52 a9 3d
       0.3455529 0.23469792 -0.46439084 0.08267753
000350 bd f9 b2 3c 83 82 22 be c8 3a 49 3d 18 a5 8f be
       0.0218476 -0.15870099 0.049128324 -0.28055644
000360 2f 20 c8 be c0 20 0c bf 33 f2 99 3e 18 73 6d 3e
       -0.39087054 -0.5473747 0.30067596 0.23188436
000370 ce 90 2f 3e 74 be 65 be c5 6b 41 bd 97 bb 29 bd
       0.17145082 -0.22435933 -0.047221918 -0.041438665
000380 3f 09 c3 3e c7 43 ef bd 74 28 db bd d0 9c 8a 3e
       0.38092992 -0.116828494 -0.10701075 0.27072763
000390 f6 31 13 bf 7f d6 0a be 2b 76 f3 3d e9 00 cf 3e
       -0.5749811 -0.13558386 0.11887773 0.40430382
0003a0 55 52 7b 3e 96 33 61 3e fb 92 14 be b9 41 a1 be
       0.24543126 0.21992335 -0.14509194 -0.31495455
0003b0 f6 6d b2 3c c6 79 e2 bd b9 f0 23 bd 90 b2 19 3e
       0.02178095 -0.11058383 -0.040024493 0.15009522
0003c0 d7 2d 3e be 39 c8 d3 bd 64 2c 62 be 68 74 19 bf
       -0.18572174 -0.10340924 -0.22087246 -0.59943247
0003d0 95 ac 09 bc db b0 2d 3f 3b 5c ea 3d cb e8 de bd
       -0.008402963 0.67847985 0.11443373 -0.108842455
0003e0 f9 6a d4 bd f9 dc 46 be 33 e5 ca be 3c 6d 84 3e
       -0.10371966 -0.19420232 -0.3962799 0.2586459
0003f0 69 5d 89 3e 11 b4 18 bf e4 09 53 bc 32 f2 80 3e
       0.2682908 -0.5964976 -0.012880776 0.2518478

critic.2.bias f4 [32]
000000 58 81 da be 99 99 e8 3c 79 ec b1 3d bb 38 eb be
       -0.42676806 0.028393554 0.08687682 -0.4594172
000010 18 a7 26 3f 19 da dc 3e ce 18 02 3f ba 69 3a 3b
       0.65098715 0.43135145 0.508191 0.0028444366
000020 cd ca 71 bd 99 a3 13 3f 38 4f 5f bf 59 93 fb be
       -0.059031297 0.57671505 -0.87230253 -0.49135855
000030 70 9e fa 3d 00 3c 11 3f e0 a5 9b 3c aa 2b e0 3e
       0.12237251 0.5673218 0.018999994 0.43783313
000040 9f 0e 66 3e aa 0d d2 3e 6e 2c a8 3e e7 62 05 bf
       0.22466515 0.4102605 0.32846397 -0.5210404
000050 8a 90 e9 bd 4e d2 e1 3e bf 98 d7 3c 0a 18 07 3f
       -0.11404522 0.44105762 0.026317952 0.52771056
000060 c1 16 e0 be 6a 9b 10 bd 1b 6b 22 bf 7c b7 f8 be
       -0.4376736 -0.035304464 -0.6344468 -0.48577487
000070 0c cb 2c 3f 8e 36 38 be 30 91 49 3f e6 78 46 be
       0.67497325 -0.17989561 0.78737164 -0.19382057

critic.4.weight f4 [1, 32]
000000 d0 74 3a 3e 98 a2 a8 3e b5 8a 32 3b 19 27 25 3f
       0.18208623 0.3293655 0.002724332 0.64512783
000010 4a 32 26 bf 01 c7 ed bd 4b 43 18 be 37 63 28 3f
       -0.64920485 -0.116102226 -0.1486942 0.6577639
000020 34 0e 1c 3f ca aa 31 bf e7 05 20 3f db 6a 44 bd
       0.6095917 -0.6940123 0.62509006 -0.047953468
000030 8b 5a da be d8 ba 41 be c5 33 04 3e 2a 3d bc bd
       -0.42647204 -0.18918931 0.12910374 -0.091913536
000040 1f 0a 7a bd 79 61 3c bf ab 13 25 bf 31 d5 b7 3e
       -0.06104481 -0.7358623 -0.64483136 0.3590484
000050 0b 3f 93 3e a0 01 f2 be c0 7a 42 3f 22 33 73 b8
       0.28759035 -0.47266865 0.7596855 -5.7983336e-05
000060 bd 0d d3 3e 4b 1a ba 3f fc b1 e7 3d ba 62 ee 3e
       0.4122142 1.4539274 0.11313245 0.46559697
000070 b2 71 26 be 55 72 a5 3e 8b 26 4a bf 55 b6 08 3f
       -0.16254309 0.3231379 -0.7896506 0.53403217
