saved/PPO_continuous_BipedalWalkerHardcore-v2_transfer.pth (torch_old, 32100 bytes, 11 tensors)

actor.0.weight f4 [64, 24]
0.2769792 -1.1960412 -0.367547 0.5631227 0.57341874 -0.23326166 -0.6377053 -0.35441643
-0.31760284 -1.276297 0.0056646364 -1.039601 0.61741006 -0.9164163 -0.19814533 0.04081242
-0.08812303 -0.25406912 -0.42719594 -0.321996 -0.18584321 -0.17554201 0.21829739 0.078631476
1.0109285 3.1850064 -0.5597844 0.55333 -0.08150556 0.5936316 0.35209844 0.2529291
0.1044848 0.73916256 -0.09374663 0.9687831 -0.63392806 -0.12439646 0.39428946 0.37522995
0.34694687 0.2139052 0.0692816 0.32546386 -0.2519299 0.19449396 -0.0009368717 -0.3437163
0.19388887 -0.7454366 0.15547876 0.050861247 0.32857984 1.17057 0.7096099 0.99616855
0.04926233 0.06474387 -0.20583107 0.41100675 -0.35761866 0.5874016 0.043011375 -0.25803232
-0.017675841 -0.4097716 -0.19345096 -0.24503317 -0.21339048 -0.061021153 0.20641929 -0.0021134887
-1.1063763 0.22557904 0.04815485 -0.13560419 0.21382846 0.24019472 0.4361559 0.89387566
-0.51970786 0.7003058 0.6971749 0.7315084 -0.64068955 -0.289209 -0.07394494 0.08493169
0.14805456 0.2001844 -0.0021002018 0.33347988 -0.0792217 0.001967211 0.08121152 -0.42014873
-0.8795908 -3.874582 0.4116054 1.3281028 -0.03422714 -0.4583106 0.17924118 -0.37917462
0.67352074 -0.086714625 -0.41048777 0.123058826 0.29027292 0.25530732 0.01127756 -0.14912352
-0.29191643 0.062639505 -0.12006509 -0.37741244 0.17394122 0.10924079 -0.097288914 -0.09719067
0.4513991 2.3370593 -0.06663225 0.1940458 0.36157542 0.88156676 -0.31694415 -1.6795257
0.34004766 0.097946644 0.033670276 0.0027253816 -1.1248522 -0.24080242 0.025033832 -0.108675964
-0.2280826 -0.02719329 -0.4128035 0.031764552 -0.28109175 -0.42662004 -0.0908832 -0.27876174
-1.3452433 0.8946756 -0.46229234 0.2469159 0.066998616 -1.1531777 -0.35522985 1.3238057
-0.51338756 0.117187336 -0.7514567 0.7569998 -1.1428123 -1.008151 0.26462597 0.3518863
0.10058347 -0.10833355 0.031477507 -0.23765035 -0.2145474 0.0847943 0.107334636 0.18103233
1.7394878 3.4019153 -0.49545845 -1.8281962 -0.47943553 -0.7024266 -0.6496897 -0.039367985
-0.19819137 1.2705629 -0.36547452 -0.8050607 -0.017891476 0.11071007 0.32477358 0.15484506
0.117155515 -0.111557536 0.006903466 -0.21647397 -0.09971597 0.03648805 0.06813265 -0.15681578
-0.18411766 -1.003173 0.079350166 -3.1852446 0.26562166 -1.2627953 -0.364222 0.6292612
-0.8860149 0.49094987 0.28103706 -1.0476627 0.4291752 -0.4848438 -0.024043655 0.038003497
-0.37432605 -0.38807032 0.1531134 0.07217099 -0.005282645 -0.3082495 0.2677764 0.06047649
1.5458101 3.2134478 -0.041467298 1.2112861 -0.3402024 -0.22902977 -0.40215856 -0.06614192
-0.24658562 0.8028716 0.09895166 -0.0038420972 0.35817754 -0.34681243 0.25985324 0.053254455
0.262626 0.30009553 0.41750488 0.0850671 0.101363115 0.17424633 0.09724907 0.03200097
-0.38385862 0.2969365 0.35514855 -1.4400377 -0.07593685 0.9309609 -1.2871908 -1.3648969
1.2758971 0.8174275 0.6892715 -0.099316694 0.10301882 -0.5676702 0.35666454 0.3066463
00000000: 38d0 8d3e e117 99bf 1f2f bcbe cf28 103f
00000010: 92cb 123f 25dc 6ebe a840 23bf 1276 b5be
00000020: d79c a2be b35d a3bf 6a9e b93b a511 85bf
00000030: 960e 1e3f 429a 6abf 9ce6 4abe ed2a 273d
00000040: d979 b4bd 5915 82be 6db9 dabe a9dc a4be
00000050: af4d 3ebe 49c1 33be 5a89 5f3e 8a09 a13d
00000060: 1b66 813f 25d7 4b40 084e 0fbf 09a7 0d3f
00000070: 63ec a6bd 3ef8 173f 3f46 b43e ec7f 813e
00000080: 20fc d53d c239 3d3f 3cfe bfbd 2b02 783f
00000090: 1c49 22bf 92c3 febd 4fe0 c93e 241e c03e
000000a0: 05a3 b13e f709 5b3e 83e3 8d3d 33a3 a63e
000000b0: f5fc 80be 6d29 473e 6598 75ba 95fb afbe
000000c0: ce8a 463e efd4 3ebf d335 1f3e e253 503d
000000d0: 9e3b a83e 3dd5 953f ffa8 353f e704 7f3f
000000e0: 4cc7 493d 6f98 843d 61c5 52be 7a6f d23e
000000f0: cb19 b7be f45f 163f b22c 303d d01c 84be
00000100: edcc 90bc 95cd d1be 0218 46be fae9 7abe
00000110: 0983 5abe 51f1 79bd 945f 533e 7582 0abb
00000120: bd9d 8dbf 31fe 663e 053e 453d d3db 0abe
00000130: d9f5 5a3e 9bf5 753e d34f df3e 09d5 643f
00000140: 930b 05bf 3e47 333f 0e7a 323f 2244 3b3f
00000150: 3b04 24bf 3413 94be 7270 97bd aaf0 ad3d
00000160: 9d9b 173e 24fd 4c3e 8aa3 09bb e0bd aa3e
00000170: fd3e a2bd 53ec 003b 3a52 a63d bc1d d7be
00000180: dd2c 61bf 27f9 77c0 f1bd d23e 46ff a93f
00000190: c231 0cbd b0a7 eabe 008b 373e 2d23 c2be
000001a0: db6b 2c3f 7097 b1bd 742b d2be 4406 fc3d
000001b0: a79e 943e a4b7 823e 84c5 383c d6b3 18be
000001c0: 1276 95be 2449 803d b0e4 f5bd 343c c1be
000001d0: a61d 323e a3b9 df3d 693f c7bd e70b c7bd
000001e0: c81d e73e 6192 1540 7d76 88bd f1b3 463e
000001f0: 6a20 b93e 5cae 613f 8146 a2be b3fa d6bf
00000200: ba1a ae3e 4098 c83d d8e9 093d 519c 323b
00000210: 28fb 8fbf e994 76be c013 cd3c 8191 debd
00000220: 7c8e 69be 76c4 debc fb5a d3be 8c1b 023d
00000230: 42eb 8fbe f16d dabe f920 babd dcb9 8ebe
00000240: ef30 acbf 7609 653f 95b1 ecbe 86d7 7c3e
00000250: 9236 893d 549b 93bf b0e0 b5be 7772 a93f
00000260: 5e6d 03bf eaff ef3d 775f 40bf bdca 413f
00000270: ac47 92bf 180b 81bf 0e7d 873e 712a b43e
00000280: b5fe cd3d fbdd ddbd 8fee 003d 9d5a 73be
00000290: 50b2 5bbe a2a8 ad3d 43d2 db3d 8a60 393e
000002a0: 89a7 de3f fbb8 5940 bbac fdbe 5502 eabf
000002b0: 9378 f5be 3bd2 33bf 1052 26bf 5340 21bd
000002c0: aef2 4abe cea1 a23f 7a1f bbbe 7518 4ebf
000002d0: 2591 92bc f6bb e23d b948 a63e b48f 1e3e
000002e0: 3bef ef3d 4778 e4bd 7836 e23b 5aab 5dbe
000002f0: e337 ccbd 7e74 153d 2189 8b3d 5194 20be
00000300: 5789 3cbe f967 80bf 5782 a23d 0cdb 4bc0
00000310: 90ff 873e 47a3 a1bf 4e7b babe 4317 213f
00000320: dfd1 62bf c85d fb3e 17e4 8f3e d019 86bf
00000330: dabc db3e 723d f8be 33f7 c4bc 8ea9 1b3d
00000340: aaa7 bfbe 27b1 c6be c2c9 1c3e 62ce 933d
00000350: 0a1a adbb e1d2 9dbe fd19 893e 32b6 773d
00000360: 1bdd c53f 21a9 4d40 9dd9 29bd 6c0b 9b3f
00000370: 022f aebe c886 6abe bae7 cdbe 6a75 87bd
00000380: f180 7cbe fe88 4d3f 2ba7 ca3d b2cb 7bbb
00000390: 0c63 b73e 6691 b1be 7c0b 853e 5821 5a3d
000003a0: ea76 863e 1fa6 993e 33c3 d53e a937 ae3d
000003b0: 7797 cf3d a16d 323e 852a c73d 7313 033d
000003c0: 1e89 c4be 1008 983e 08d6 b53e 2853 b8bf
000003d0: c784 9bbd 7453 6e3f abc2 a4bf f1b4 aebf
000003e0: 9950 a33f ee42 513f 1974 303f 8d66 cbbd
000003f0: 88fb d23d d652 11bf bc9c b63e be00 9d3e

actor.0.bias f4 [64]
0.21162137 -0.10400248 -0.06630579 -0.107433245 0.19763477 -0.0365438 0.056561198 -0.2744546
-0.111555204 -0.23796797 -0.35102984 -0.20339572 0.16114609 -0.08522885 -0.38881487 -0.25578192
0.12560895 -0.1272753 0.20572627 0.06687196 0.09606306 -0.06119241 -0.041904263 0.14741224
-0.080762945 0.032343943 -0.20539105 0.36202908 0.018902894 -0.15560926 -0.11233412 0.21115442
-0.28522506 -0.15982834 -0.2665705 -0.2707657 -0.19018185 0.1733539 0.12205402 0.017112723
0.13229652 -0.2614662 -0.28955436 0.031253006 0.34330377 0.14919043 0.10884192 -0.20866789
0.09119108 -0.08686131 0.25785393 -0.50573725 -0.56435215 -0.08434916 -0.12192031 0.23269124
0.019087236 0.07596065 -0.266405 0.001201979 -0.06309084 0.08022 0.36770427 -0.26800376
00000000: 46b3 583e 41ff d4bd 54cb 87bd f605 dcbd
00000010: c560 4a3e f4ae 15bd b7ac 673d 5085 8cbe
00000020: 0e77 e4bd e0ad 73be 2fba b3be f846 50be
00000030: 7b03 253e 778c aebd be12 c7be d9f5 82be
00000040: a29f 003e 7554 02be e8a9 523e 2bf4 883d
00000050: b6bc c43d e4a4 7abd cea3 2bbd 3cf3 163e
00000060: 0b67 a5bd 157b 043d 0852 52be e05b b93e
00000070: 3eda 9a3c 0958 1fbe 6e0f e6bd dd38 583e
00000080: 0509 92be 0aaa 23be ee7b 88be cda1 8abe
00000090: 08bf 42be af83 313e 75f7 f93d fb2f 8c3c
000000a0: bd78 073e e6de 85be 7840 94be 2703 003d
000000b0: 83c5 af3e 60c5 183e 83e8 de3d 09ad 55be
000000c0: 64c2 ba3d 58e4 b1bd 6e05 843e ff77 01bf
000000d0: 6279 10bf 41bf acbd 5bb1 f9bd 9d46 6e3e
000000e0: d65c 9c3c 4291 9b3d 3c66 88be b98b 9d3a
000000f0: c535 81bd 624a a43d bc43 bc3e ca37 89be

actor.2.weight f4 [32, 64]
1.3890293 -0.4248112 0.2200889 -0.35330176 0.038300075 -0.49770877 -0.2534243 -0.008386368
-0.7521135 0.48998454 -0.7173876 1.0394919 0.3387187 -0.30673122 -0.5466734 0.38888353
0.18599646 0.10117573 0.04757199 0.63206637 -0.43009487 -0.29108083 -0.9654976 0.47218406
-0.21596546 0.63259244 -0.2865793 -0.4510759 0.10772828 0.26207566 0.3985868 1.0878868
0.093843445 -0.7474411 -0.9474912 0.47697967 -0.18357797 0.27685893 -1.2215929 0.2156928
-1.1649778 0.62659127 -0.09014864 -0.27294374 -0.94470096 -2.3505185 -0.20593926 -0.4502376
0.15841058 0.23093577 -0.3713631 -0.20309222 -0.14862265 0.43574724 -0.5988987 0.82566476
0.24093421 -0.2912045 0.03795555 0.24229155 -0.6897758 -1.3756742 0.39187393 0.086537264
-0.62054807 0.24267282 0.8546166 0.5430944 0.08490677 -0.012282568 0.522229 -1.043578
-0.525033 -1.1135134 0.40840685 0.41903004 -1.1246431 0.4743514 0.60030997 1.5597126
-0.5540233 0.41512972 0.6032714 -0.31181994 0.32068008 -0.88121843 0.030704742 0.23596829
-0.5101721 -0.35873812 0.15833224 1.4319282 -0.08158116 -0.3777259 0.5326433 -0.6433658
0.27965632 -1.1188601 -0.46418062 -0.045019377 0.16493571 0.23976275 0.0066043567 -0.82537997
0.12435877 0.823198 0.13874422 -0.32802624 0.897698 -0.019452028 -0.6439737 -0.20546716
-0.94634795 -0.18118319 0.51953703 0.953298 -0.06260169 1.4891052 -0.58962345 -0.8998012
0.25390336 -0.12850353 0.84576064 0.6120996 -0.27518052 -1.1102661 -0.10090318 -0.28205034
0.9734579 0.31620303 -1.2947975 -0.6655991 -0.1144585 -0.1455117 0.53411067 0.66209686
0.44500506 0.41410893 -0.394976 0.265583 0.0034264293 0.41626886 -0.5224297 -0.9855417
-0.15586041 0.9072152 -0.10601847 -0.38533968 -0.35446325 0.47180054 -1.2770087 -0.03339068
0.1675036 -0.50070524 -0.71812654 0.78700405 0.35981056 0.9484087 -1.0838492 0.30222738
-0.38146326 -0.17266145 0.78708386 -0.7871751 0.6420532 -1.6507279 -0.72841644 0.13858794
0.9835447 -0.017521027 -0.9392572 -0.63586265 0.2233969 1.1330835 -0.3486014 1.6011626
-0.16590308 -0.74392784 0.5567667 0.027947942 -0.48266855 -0.8638658 -0.7967262 0.28849477
-0.17163883 0.1588803 0.5698839 -0.68504006 0.1375152 0.8025515 0.6604014 0.20286438
0.8450889 -0.156192 -0.19642577 0.18288912 0.4568844 0.17062499 0.96745276 -1.9562644
-0.4871199 -0.72422624 0.21708517 0.8648149 0.2596169 -0.08862472 -0.84902436 1.1521326
-0.61550075 0.017450562 0.7281701 -0.007959217 -0.52283967 -0.41895956 -0.013774682 0.14277431
-0.2295433 -0.34209478 -0.35427216 0.23250008 0.34179386 -0.5239639 -0.4786033 0.28244278
-0.27831343 -1.4794309 -0.2968295 -0.5642731 0.2706079 -0.3875443 1.0100486 -0.26872805
0.58554626 0.5804145 -0.67361754 -0.83308995 -0.6561239 0.69751483 -0.806782 -0.53624296
0.010914287 -0.3501739 0.54136884 -0.2742097 0.12809749 0.336739 0.110235654 -0.4096571
0.29222125 1.0636396 0.4739504 -0.6725927 0.2946053 -0.7343545 0.2921198 -0.45308483
00000000: b6cb b13f db80 d9be fc5e 613e f8e3 b4be
00000010: 8ae0 1c3d afd3 febe d4c0 81be fa66 09bc
00000020: 838a 40bf 41df fa3e b7a6 37bf 120e 853f
00000030: 8a6c ad3e e00b 9dbe caf2 0bbf be1b c73e
00000040: db75 3e3e 3935 cf3d d9da 423d 1acf 213f
00000050: 6535 dcbe 8c08 95be da2a 77bf 1cc2 f13e
00000060: 0d26 5dbe 94f1 213f 86ba 92be 6cf3 e6be
00000070: a5a0 dc3d c82e 863e 9213 cc3e e03f 8b3f
00000080: fe30 c03d 4d58 3fbf c98e 72bf ae36 f43e
00000090: ddfb 3bbe 74c0 8d3e 285d 9cbf 93de 5c3e
000000a0: fe1d 95bf 4968 203f da9f b8bd 48bf 8bbe
000000b0: ecd7 71bf e56e 16c0 bee1 52be 8b85 e6be
000000c0: 6236 223e 6d7a 6c3e 4e23 bebe 68f7 4fbe
000000d0: 8930 18be 431a df3e 6d51 19bf c45e 533f
000000e0: 75b7 763e c218 95be 4777 1b3d 471b 783e
000000f0: 2695 30bf 1816 b0bf b3a3 c83e 733a b13d
00000100: 3ddc 1ebf 397f 783e 27c8 5a3f 3c08 0b3f
00000110: 9ae3 ad3d d33c 49bc cdb0 053f f793 85bf
00000120: 9068 06bf 9b87 8ebf b41a d13e 1b8b d63e
00000130: 4ef4 8fbf 30de f23e eaad 193f aaa4 c73f
00000140: 79d4 0dbf e28b d43e ff6f 1a3f dda6 9fbe
00000150: 2e30 a43e 8897 61bf 8388 fb3c aca1 713e
00000160: a49a 02bf 86ac b7be d921 223e 6c49 b73f
00000170: 0614 a7bd 4a65 c1be 505b 083f 9fb3 24bf
00000180: 1d2f 8f3e cf36 8fbf 15a9 edbe 3d66 38bd
00000190: e8e4 283e 5e84 753e 5c69 d83b 1a4c 53bf
000001a0: d0af fe3d 1bbd 523f f712 0e3e 0ef3 a7be
000001b0: 89cf 653f dc59 9fbc 76db 24bf fc65 52be
000001c0: dc43 72bf 1688 39be 6100 053f 560b 743f
000001d0: 5135 80bd 009b be3f 90f1 16bf 5f59 66bf
000001e0: 9fff 813e 6e96 03be c583 583f 8fb2 1c3f
000001f0: 76e4 8cbe 331d 8ebf 54a6 cebd e768 90be
00000200: 8934 793f 5de5 a13e edbb a5bf b464 2abf
00000210: 3869 eabd 0501 15be 7abb 083f 2e7f 293f
00000220: b4d7 e33e 1606 d43e 4b3a cabe 7ffa 873e
00000230: f28d 603b 3121 d53e f4bd 05bf 764c 7cbf
00000240: df99 1fbe 413f 683f 3620 d9bd 3e4b c5be
00000250: 357c b5be d78f f13e 0575 a3bf aac4 08bd
00000260: 1086 2b3e 382e 00bf 24d7 37bf 1979 493f
00000270: 1739 b83e eaca 723f 92bb 8abf 8cbd 9a3e
00000280: 274f c3be 2ace 30be 547e 493f 4f84 49bf
00000290: 995d 243f 0d4b d3bf 8079 3abf ffe9 0d3e
000002a0: 96c9 7b3f 4288 8fbc 2973 70bf e5c7 22bf
000002b0: 28c2 643e e108 913f e27b b2be e5f2 cc3f
000002c0: 7fe2 29be 0e72 3ebf 4388 0e3f 15f3 e43c
000002d0: 5520 f7be 4f26 5dbf 40f6 4bbf 96b5 933e
000002e0: 17c2 2fbe 84b1 223e e9e3 113f c95e 2fbf
000002f0: c9d0 0c3e 0474 4d3f 1110 293f aebb 4f3e
00000300: bf57 583f ccf0 1fbe d623 49be 4947 3b3e
00000310: c1ec e93e 51b8 2e3e fcaa 773f df66 fabf
00000320: c867 f9be e466 39bf 934b 5e3e 8264 5d3f
00000330: 82ec 843e e180 b5bd a959 59bf 1579 933f
00000340: 7591 1dbf 7bf4 8e3c 5b69 3a3f 6067 02bc
00000350: d2d8 05bf de81 d6be 34af 61bc 6e33 123e
00000360: 660d 6bbe 0c27 afbe 2963 b5be 8014 6e3e
00000370: 9bff ae3e 8022 06bf 7e0b f5be 579c 903e
00000380: 197f 8ebe fe5d bdbf 09fa 97be 3474 10bf
00000390: 1e8d 8a3e 356c c6be 4649 813f b996 89be
000003a0: 5ce6 153f 0b96 143f 3372 2cbf 6245 55bf
000003b0: bcf7 27bf 5590 323f 4489 4ebf 3847 09bf
000003c0: d6d1 323c fe49 b3be 2697 0a3f 3765 8cbe
000003d0: fd2b 033e 0e69 ac3e 3bc3 e13d 93be d1be
000003e0: 069e 953e 5825 883f a0a9 f23e 092f 2cbf
000003f0: 82d6 963e a8fe 3bbf ba90 953e bcfa e7be

actor.2.bias f4 [32]
-0.33112094 0.07906313 0.4615182 0.105523534 -0.010921584 -0.44537452 0.34297937 -0.06272677
-0.21114446 0.28466225 -0.12092759 -0.14452663 -0.0045914333 0.6770033 -0.4379301 -0.06978187
-0.4262173 -0.19780406 0.18225865 0.09947047 0.30039027 -0.64284927 -0.31531698 0.06861864
-0.22569287 -0.3120682 0.18540569 -0.2875514 0.35069928 0.09664729 0.27573544 -0.2974791
00000000: af88 a9be daeb a13d 1d4c ec3e b91c d83d
00000010: 72f0 32bc 2108 e4be fe9a af3e e576 80bd
00000020: 4136 58be 40bf 913e e2a8 f7bd cafe 13be
00000030: bc73 96bb 1750 2d3f 6038 e0be cce9 8ebd
00000040: 2739 dabe 268d 4abe 03a2 3a3e 2cb7 cb3d
00000050: c1cc 993e c591 24bf 3a71 a1be ee87 8c3d
00000060: 081c 67be 67c7 9fbe fdda 3d3e f039 93be
00000070: db8e b33e 04ef c53d 322d 8d3e 2e4f 98be

actor.4.weight f4 [4, 32]
-1.3922683 -1.1134467 0.9228319 0.2558378 -0.08692487 -1.7239885 1.8449705 1.5634576
-1.4314903 -0.5672119 1.919187 1.0402385 1.8647283 1.2445493 0.023054838 1.7531778
0.17839383 0.83456963 -1.5568967 -1.9622864 1.4361627 -1.7384074 -0.37660453 2.0385664
-0.7676424 0.32081422 -0.42523316 -0.8724113 0.17005448 2.0893388 -0.7660034 1.2814922
0.08249034 1.6299456 1.7702078 2.174783 0.9039442 -0.62499446 -1.2688792 -1.1670365
-1.3945675 2.3036888 -0.30723637 -1.0500512 0.99141425 -0.343089 0.066091694 -0.43932185
1.0653484 0.9475744 -0.939465 -1.41849 -1.544562 -0.04528284 -0.9235814 -0.17063884
-1.5762949 -0.43425798 -2.813017 1.8279303 2.0507739 1.212799 -1.1012914 -0.077942364
-1.2140218 0.98015636 1.3148899 -1.7102184 -1.0701537 -1.2284348 -0.4034108 1.084128
1.250154 0.21341723 -0.79909384 -2.51604 -0.19137676 1.6651921 -1.4077581 1.6939977
-1.0207465 1.1664826 2.0869074 0.45138168 -0.78282106 -0.38447005 -0.54759455 0.845823
1.5620649 0.847332 -0.7072372 -0.38883108 0.012331095 0.7475503 -1.419308 -0.8038257
-0.6485708 -0.6355209 0.8357437 1.7128093 1.1077924 -0.5249235 0.1342077 1.971658
-0.22397482 -1.1574893 -1.4357258 1.2553585 -3.3402212 0.7203714 -1.4127579 -0.9594404
1.7951803 -0.9490049 -1.1429838 -0.8243191 -0.8972937 -1.6539097 0.90332085 -1.7467489
-0.37004858 -2.2012062 -0.302253 1.3647237 -1.4781818 0.6088796 -1.6642187 1.7619827
00000000: d935 b2bf 6c85 8ebf b63e 6c3f 2cfd 823e
00000010: ab05 b2bd a8ab dcbf fe27 ec3f 611f c83f
00000020: 133b b7bf cd34 11bf eba7 f53f 8926 853f
00000030: 6baf ee3f 644d 9f3f 80dd bc3c 2168 e03f
00000040: dfac 363e 5ba6 553f 6448 c7bf 332c fbbf
00000050: 2ed4 b73f 2284 debf 4fd2 c0be df77 0240
00000060: 3684 44bf c341 a43e 29b8 d9be 5956 5fbf
00000070: c322 2e3e bab7 0540 cc18 44bf f007 a43f
00000080: b2f0 a83d 0fa2 d03f 2b96 e23f a52f 0b40
00000090: e368 673f a3ff 1fbf a26a a2bf 7461 95bf
000000a0: 3081 b2bf a36f 1340 164e 9dbe 1468 86bf
000000b0: 53cd 7d3f 5da9 afbe 155b 873d cbee e0be
000000c0: 565d 883f 3c94 723f c780 70bf 1591 b5bf
000000d0: 35b4 c5bf 807a 39bd d56f 6cbf f3bb 2ebe
000000e0: 08c4 c9bf 1057 debe 7808 34c0 9ff9 e93f
000000f0: e13f 0340 ff3c 9b3f 1ef7 8cbf 3fa0 9fbd
00000100: 1165 9bbf 87eb 7a3f 504e a83f 70e8 dabf
00000110: ccfa 88bf 5a3d 9dbf dc8b cebe b5c4 8a3f
00000120: 0c05 a03f 0c8a 5a3e 6a91 4cbf cd06 21c0
00000130: 45f8 43be 0425 d53f 6b31 b4bf ebd4 d83f
00000140: d2a7 82bf 4d4f 953f e48f 0540 801b e73e
00000150: f666 48bf 42d9 c4be 282f 0cbf db87 583f
00000160: bef1 c73f c0ea 583f 7f0d 35bf de14 c7be
00000170: 5c08 4a3c 755f 3f3f e2ab b5bf 85c7 4dbf
00000180: bc08 26bf 7fb1 22bf 4df3 553f 563d db3f
00000190: 24cc 8d3f 6361 06bf be6d 093e 4a5f fc3f
000001a0: a859 65be 9c28 94bf ddc5 b7bf 96af a03f
000001b0: 2fc6 55c0 436a 383f 40d5 b4bf e39d 75bf
000001c0: 78c8 e53f fcf1 72bf 4b4d 92bf 9406 53bf
000001d0: 0ab5 65bf 50b3 d3bf 0940 673f 7895 dfbf
000001e0: 0277 bdbe 90e0 0cc0 e8c0 9abe 44af ae3f
000001f0: 1035 bdbf 89df 1b3f 1e05 d5bf a688 e13f

actor.4.bias f4 [4]
0.8036649 0.14678754 -0.31465942 0.39709994
00000000: fcbc 4d3f 794f 163e 0a1b a1be af50 cb3e

critic.0.weight f4 [64, 24]
0.42236993 0.29308367 -0.6969143 -0.22887601 0.07895977 -0.053346526 0.01442406 0.08653788
0.044229027 -0.10725046 0.04080677 -0.22575052 0.19340695 -0.0024531612 -0.35465845 0.19506125
0.15699537 0.22932023 0.7222264 -0.04414204 -0.43877745 -0.6033761 -0.09505238 0.0595611
-1.8423271 -0.35607094 1.3349245 1.1336954 0.28400794 -0.029425558 0.44582653 0.004787333
0.5899769 -1.9005975 0.4228264 -0.36341944 0.40529558 -0.39914724 0.39573255 0.23147407
0.27231064 0.20654333 0.29743883 0.22969817 0.44758046 0.4382838 0.02436862 0.22856197
-0.27469912 -1.3079603 -1.1609061 2.2208781 0.5319892 -0.18560717 1.0058961 -0.0021530823
-0.3810751 -1.9167203 0.17467065 0.115566745 0.17741978 0.123707354 -0.09014533 0.080767885
-0.17382926 -0.14062448 0.5756791 0.50966865 0.08140178 -0.6306529 -0.30927205 0.1898481
-1.5546565 -0.33646 1.128324 -2.1804523 -1.2781802 0.11831577 -0.58627534 0.13827305
-0.08436098 -0.24130057 0.04965038 -0.40228388 0.12586531 0.41500825 0.030423628 0.6204567
0.5343637 0.328316 -0.2371842 -0.6231936 -0.7136546 -0.6787033 -0.23572081 -0.13154097
3.0789142 1.3654537 -1.8115119 0.59449136 0.8380807 0.23271099 0.7458481 0.07600224
0.0033668368 -0.19588095 0.12845246 -0.42623085 0.07550374 0.22190249 -0.153123 -0.45987132
-0.38737854 -0.11909142 0.6493641 0.7975294 0.44084185 0.28389272 0.32964244 -0.033504017
2.368026 4.7840896 -0.2990137 -0.94279164 1.5384245 0.07734702 0.67252845 -0.08994991
0.07681826 -0.059582394 0.14817166 -0.095251545 0.07110673 0.40178365 -0.6441007 -1.0263747
-0.6052472 -0.00066574675 0.91733223 0.82737434 0.25796333 -0.22830774 0.07491536 0.09288389
-0.8042267 4.8681955 0.6276242 -2.3804634 0.99583995 0.13931784 -0.41298047 0.28246072
0.04711279 0.040082615 0.18191956 0.22550184 -0.0477121 0.848055 0.054076757 -0.7492476
-0.8105087 -0.55072427 -0.9008849 -0.10539691 -0.13248073 -0.046547987 0.13914773 0.43827647
0.30151865 -2.9539783 1.1356741 2.3140202 -0.8635854 -0.093322195 -1.2829173 -0.14051647
0.60816276 0.35727572 0.3270893 -0.54843056 0.26037475 0.32067338 0.32474494 0.5370034
0.044658713 0.029764408 0.03334562 -0.5170933 -0.55357367 -0.12410555 0.03525285 -0.24438836
0.06921478 1.2617358 1.0766184 0.31991833 0.1715158 -0.14319575 -0.49365377 -0.09127886
-0.1805191 0.027609423 0.18130226 -0.09018301 -0.0039994717 -0.23689397 -0.39349484 -0.59541434
-0.5378316 -0.36856332 -0.16736808 -0.07553847 0.05304831 -0.10176863 -0.03700237 0.67799747
-0.14546275 1.0077499 -0.27857032 0.27668774 0.03601623 -0.05861838 0.23932548 0.029059963
0.03812176 0.06802622 0.09709604 0.39238912 0.18801282 0.033264484 0.7375637 0.4493452
-0.023602907 -0.42923418 -0.8036774 -0.5848497 -0.280158 0.34467456 0.23152031 -0.1358651
-0.7469604 -7.269154 0.4115077 -1.2785757 0.3548731 -0.33998278 0.14604104 -0.09136995
-0.03860231 -1.3431358 -0.07185711 -0.3608907 -0.00013814398 0.065847784 -0.588776 0.021841284
00000000: df40 d83e 100f 963e fa68 32bf 795e 6abe
00000010: a9b5 a13d e381 5abd e452 6c3c c63a b13d
00000020: 7f29 353d 21a6 dbbd 0025 273d 252b 67be
00000030: 790c 463e 37c5 20bb cb95 b5be 23be 473e
00000040: 65c3 203e ecd2 6a3e d4e3 383f 49ce 34bd
00000050: 70a7 e0be db76 1abf d2aa c2bd 57f6 733d
00000060: 60d1 ebbf ee4e b6be cede aa3f ee1c 913f
00000070: 7d69 913e de0d f1bc 6043 e43e 0fdf 9c3b
00000080: ba08 173f c746 f3bf b47c d83e 1d12 babe
00000090: e782 cf3e 075d ccbe 759d ca3e 8a07 6d3e
000000a0: 4d6c 8b3e 1880 533e e749 983e ff35 6b3e
000000b0: 4429 e53e bc66 e03e b3a0 c73c 260c 6a3e
000000c0: 5da5 8cbe 3e6b a7bf 9298 94bf de22 0e40
000000d0: 7230 083f ce0f 3ebe 34c1 803f ba1a 0dbb
000000e0: 471c c3be 1757 f5bf dddc 323e 42ae ec3d
000000f0: 88ad 353e 485a fd3d 1d9e b8bd a269 a53d
00000100: 4c00 32be ddff 0fbe b55f 133f a579 023f
00000110: fab5 a63d 7872 21bf e858 9ebe 8a67 423e
00000120: fcfe c6bf 7c44 acbe ec6c 903f 888c 0bc0
00000130: 699b a3bf 8a4f f23d 2416 16bf 7397 0d3e
00000140: 73c5 acbd 7f17 77be 325e 4b3d 27f8 cdbe
00000150: d6e2 003e f67b d43e f93a f93c 40d6 1e3f
00000160: 0fcc 083f 0919 a83e 6ae0 72be 9e89 1fbf
00000170: 11b2 36bf 80bf 2dbf cc60 71be adb2 06be
00000180: ee0c 4540 30c7 ae3f 9fdf e7bf 9630 183f
00000190: 758c 563f ca4b 6e3e e7ef 3e3f 10a7 9b3d
000001a0: 26a6 5c3b 0495 48be 0b89 033e ee3a dabe
000001b0: b4a1 9a3d 683a 633e 47cc 1cbe 4174 ebbe
000001c0: 7b56 c6be 34e6 f3bd ba3c 263f e32a 4c3f
000001d0: 06b6 e13e 635a 913e e5c6 a83e 823b 09bd
000001e0: bd8d 1740 4317 9940 5318 99be cb5a 71bf
000001f0: 18eb c43f 1d68 9e3d d32a 2c3f a937 b8bd
00000200: e452 9d3d ab0c 74bd 50ba 173e 3e13 c3bd
00000210: 68a0 913d 96b6 cd3e c9e3 24bf 3f60 83bf
00000220: 7bf1 1abf 8285 2eba 49d6 6a3f cece 533f
00000230: c513 843e 81c9 69be 396d 993d e939 be3d
00000240: cde1 4dbf 42c8 9b40 fbab 203f 8359 18c0
00000250: 5eef 7e3f 56a9 0e3e 2d72 d3be b19e 903e
00000260: 57f9 403d ab2d 243d 1f49 3a3e f4e9 663e
00000270: c36d 43bd 221a 593f 977f 5d3d b1ce 3fbf
00000280: 807d 4fbf 44fc 0cbf 65a0 66bf 56da d7bd
00000290: 07a9 07be 1aa9 3ebd be7c 0e3e c665 e03e
000002a0: a760 9a3e fb0d 3dc0 c55d 913f e818 1440
000002b0: ef13 5dbf b51f bfbd a236 a4bf 8de3 0fbe
000002c0: 8eb0 1b3f d8ec b63e 4078 a73e f265 0cbf
000002d0: d74f 853e 4d2f a43e f844 a63e 0e79 093f
000002e0: 0eec 363d 7dd4 f33c 6b95 083d 3a60 04bf
000002f0: 01b7 0dbf 0d2b febd 4b65 103d f140 7abe
00000300: 7bc0 8d3d 8f80 a13f a2ce 893f 56cc a33e
00000310: d6a1 2f3e e8a1 12be 30c0 fcbe 69f0 babd
00000320: 00da 38be 282d e23c 4da7 393e dfb1 b8bd
00000330: 000e 83bb 5594 72be 2878 c9be 136d 18bf
00000340: 55af 09bf 55b4 bcbe 8a62 2bbe eab3 9abd
00000350: 2f49 593d 126c d0bd cc8f 17bd 3e91 2d3f
00000360: 30f4 14be f3fd 803f c5a0 8ebe 04aa 8d3e
00000370: c185 133d d419 70bd bd11 753e 290f ee3c
00000380: 9025 1c3d 5551 8b3d 4ada c63d 3ae7 c83e
00000390: 6f86 403e 5740 083d fad0 3c3f 9310 e63e
000003a0: e25a c1bc 95c4 dbbe cdbd 4dbf b6b8 15bf
000003b0: df70 8fbe 2f79 b03e a913 6d3e 3920 0bbe
000003c0: cc38 3fbf e99c e8c0 23b1 d23e 5ea8 a3bf
000003d0: edb1 b53e 3912 aebe c88b 153e 2b20 bbbd
000003e0: 751d 1ebd e0eb abbf d229 93bd aac6 b8be
000003f0: beda 10b9 34db 863d 06ba 16bf 7eec b23c

critic.0.bias f4 [64]
0.069368154 0.6714694 0.32126623 0.15106927 -0.14687254 -0.07769081 0.34818164 0.057730883
0.69677657 -0.28845632 0.72010064 0.10170974 0.01532092 -0.09958104 -1.0139459 -0.28372678
0.97549415 -0.56365347 -0.13882871 0.19538493 -0.51707107 0.19576783 -0.24506994 1.0029914
-0.41402662 0.6675214 -0.27290714 0.6241209 0.38771775 -0.6004547 0.17885734 0.67509806
1.4469943 -1.1159478 -0.9085331 0.7598112 -0.39979637 0.3844836 0.5921358 0.2149067
-0.049936567 -0.8765886 -0.86519766 0.65411985 -0.78159326 0.40848604 0.08143157 0.31244954
0.007826266 -0.01832535 0.7389444 0.27548903 -0.40954366 -0.94757205 -0.5187455 0.51833564
0.4863625 -1.0150075 -0.3835015 -0.36662972 -0.90850174 -0.39900222 -0.34495318 -0.4896921
00000000: e410 8e3d 6be5 2b3f 027d a43e e7b1 1a3e
00000010: c165 16be 5c1c 9fbd dd44 b23e 3877 6c3d
00000020: f35f 323f 8cb0 93be 8458 383f 324d d03d
00000030: 9904 7b3c 25f1 cbbd fbc8 81bf a344 91be
00000040: fcb9 793f 984b 10bf 1d29 0ebe fd12 483e
00000050: c55e 04bf 5d77 483e 9df3 7abe 0662 803f
00000060: 4cfb d3be afe2 2a3f 7cba 8bbe 63c6 1f3f
00000070: f182 c63e 66b7 19bf 6126 373e 3ad3 2c3f
00000080: 1c37 b93f 61d7 8ebf a095 68bf fd82 423f
00000090: 1cb2 ccbe 09db c43e 3696 173f 8110 5c3e
000000a0: 498a 4cbd 1c68 60bf 987d 5dbf 6674 273f
000000b0: 7f16 48bf 1525 d13e 98c5 a63d 63f9 9f3e
000000c0: bd39 003c 0b1f 96bc 762b 3d3f e60c 8d3e
000000d0: b5af d1be 1594 72bf 81cc 04bf a5b1 043f
000000e0: 8104 f93e c4eb 81bf 4f5a c4be e4b6 bbbe
000000f0: 9293 68bf 054a ccbe b49d b0be ecb8 fabe

critic.2.weight f4 [32, 64]
0.4424662 0.21242945 0.078875326 0.14033848 -1.0154424 -0.5586206 0.016360391 -0.35919592
-0.5695695 -0.56607354 0.25401378 0.18761683 0.6525538 0.8571286 -0.5236538 -0.073383294
-0.3655207 -0.29336965 0.4424056 -0.18909758 0.027265342 -0.24958743 0.586109 -0.080866486
-0.0067104683 0.15719219 -0.317789 -0.57764 -0.11703648 1.3803036 -0.46890786 -0.36112028
-0.4395633 0.21163885 0.17819823 -0.45528737 0.30620128 -0.21612702 0.08410841 -0.33102033
0.24225762 -0.11256206 0.21088831 1.2508885 0.9313864 -0.10578222 0.4294617 -0.66601986
-0.5905801 0.7166908 0.03590509 0.21972111 1.2582732 0.2698628 -0.026963426 -0.29804268
-1.1890928 0.13095292 -0.112048455 0.20411997 -0.04628696 -0.10726462 -1.1571635 -0.40864867
0.48887825 0.271841 0.6099608 -1.1860328 1.1549356 1.4147204 -0.042870365 0.14005218
0.17646594 -0.76011056 -0.8788513 -0.65848976 0.40620402 -0.306991 -0.05293301 -0.09959562
1.0155973 0.5808184 0.73092604 0.7377949 0.4913485 0.02503123 0.5753355 0.9366505
0.25451508 0.18883973 0.58336353 0.5776535 0.6374693 -0.31530556 0.33176064 -0.21495998
-0.047433574 -0.2645058 -0.3790171 -0.73289514 0.21672387 -0.74363965 -0.1406559 0.3314146
-0.47855547 -0.1654296 -0.22858472 0.4836872 -0.07697559 0.75812554 0.065105855 -0.24136959
0.10041423 0.42604548 -0.04105084 0.011392934 0.45257458 -0.33226937 0.09900409 0.090910725
-0.2281375 -0.54815096 0.48768035 -0.45063892 0.16380624 0.6542631 0.26431596 0.41412023
0.26522014 0.051727545 0.3725451 -0.65533704 0.7208467 1.0725434 0.41694537 -0.91432863
-0.31060216 -1.8608956 -0.7049836 -0.56588227 0.9726818 0.34343734 0.21738395 -0.09074965
0.12236368 -0.4437708 0.012791211 0.11250108 -0.2755178 -0.5035552 0.47124076 0.39364836
0.09631414 -0.29622346 0.4738368 0.36474574 0.46071222 0.42949438 0.73391473 0.088035874
-0.9964329 0.66235477 -0.20117575 0.6080472 0.19804178 0.4745262 -0.5754744 -0.22911493
-0.093066365 0.084110364 0.05945681 -0.17523569 0.83351314 -0.566231 0.35189012 -0.085350014
-0.7921498 -0.29492894 0.58693403 -0.14030033 -0.30276373 0.69723046 -0.21009532 -0.1609088
0.24241802 0.52523273 0.025056072 -0.7314014 -0.44527265 -0.59151334 0.72471356 0.38033748
-0.35069126 -0.11744161 0.25919345 -0.22281516 0.34662142 0.47675118 -0.012595126 0.10000247
-0.24572736 0.7155394 0.2568604 -0.043360498 -1.1576626 0.2687076 0.08046059 -0.2897816
0.44466186 0.12083465 -0.33305424 0.26542014 0.14717627 0.062943846 0.13859883 -0.17962243
-0.2613363 -0.4339556 0.0444931 0.29935852 0.074458666 -0.31041455 0.36720818 0.09589654
0.41221175 -0.22651327 -0.22313799 0.17709772 -0.8070667 -0.10268842 0.0543882 0.7458079
-0.033955816 0.32552963 -0.72279805 -1.2164799 -0.4635064 -0.15941572 -0.8384428 0.43530825
-0.11971089 -0.7009658 -0.15637861 -0.5427105 -0.982607 0.25295255 -0.033161864 -0.3510934
0.2553843 -0.29386508 -0.64320874 0.4950821 0.1139147 -0.68721724 0.47171563 0.28711838
00000000: ee8a e23e 1b87 593e 6389 a13d e4b4 0f3e
00000010: 04fa 81bf c201 0fbf 3a06 863c 87e8 b7be
00000020: 4fcf 11bf 32ea 10bf 180e 823e a01e 403e
00000030: c40d 273f c86c 5b3f 2d0e 06bf fb49 96bd
00000040: 8725 bbbe 8c34 96be fd82 e23e cca2 41be
00000050: 915b df3c d993 7fbe 3d0b 163f 549d a5bd
00000060: 7de3 dbbb fdf6 203e 3db5 a2be 37e0 13bf
00000070: d2b0 efbd caad b03f b114 f0be c2e4 b8be
00000080: 710e e1be dbb7 583e 9979 363e 6d1b e9be
00000090: 6ac6 9c3e 6750 5dbe 0841 ac3d 7f7b a9be
000000a0: 6212 783e f086 e6bd 1bf3 573e 1d1d a03f
000000b0: 576f 6e3f 59a4 d8bd 67e2 db3e 4780 2abf
000000c0: 4230 17bf 0c79 373f 3711 133d 92fe 603e
000000d0: 190f a13f 752b 8a3e 67e2 dcbc 0d99 98be
000000e0: 3134 98bf 8618 063e a979 e5bd d304 513e
000000f0: 6597 3dbd 8ead dbbd ef1d 94bf 663a d1be
00000100: 404e fa3e be2e 8b3e 6426 1c3f eccf 97bf
00000110: eed4 933f 8f15 b53f d698 2fbd d769 0f3e
00000120: 7db3 343e 9b96 42bf 66fc 60bf c992 28bf
00000130: f9f9 cf3e ed2d 9dbe 49d0 58bd caf8 cbbd
00000140: 18ff 813f 84b0 143f f81d 3b3f 20e0 3c3f
00000150: 0892 fb3e 4b0e cd3c 3049 133f 54c8 6f3f
00000160: cd4f 823e 345f 413e 5057 153f 1ae1 133f
00000170: 3031 233f bb6f a1be 88dc a93e 781e 5cbe
00000180: b549 42bd 4e6d 87be 880e c2be 049f 3bbf
00000190: ddec 5d3e 2b5f 3ebf 1a08 10be 2daf a93e
000001a0: 3905 f5be 6166 29be 1d12 6abe d9a5 f73e
000001b0: 61a5 9dbd 8414 423f 3856 853d 9729 77be
000001c0: faa5 cd3d a222 da3e ed24 28bd 6ea9 3a3c
000001d0: dbb7 e73e 361f aabe a8c2 ca3d 672f ba3d
000001e0: e09c 69be 9f53 0cbf 3db1 f93e 25ba e6be
000001f0: d3bc 273e c97d 273f 6c54 873e 9107 d43e
00000200: efca 873e 43e0 533d 3bbe be3e 2bc4 27bf
00000210: 6989 383f 1a49 893f dd79 d53e 7111 6abf
00000220: 3f07 9fbe d431 eebf ce79 34bf a9dd 10bf
00000230: ad01 793f 05d7 af3e e699 5e3e f4da b9bd
00000240: cf99 fa3d ed35 e3be 3a92 513c f766 e63d
00000250: ab10 8dbe fee8 00bf 7846 f13e 478c c93e
00000260: 5940 c53d 9aaa 97be bd9a f23e f4bf ba3e
00000270: 79e2 eb3e b0e6 db3e d6e1 3b3f 274c b43d
00000280: 3a16 7fbf 1590 293f 0401 4ebe fba8 1b3f
00000290: 77cb 4a3e 19f5 f23e 4a52 13bf 1b9d 6abe
000002a0: 9499 bebd 0e42 ac3d fc88 733d fc70 33be
000002b0: 1e61 553f 84f4 10bf f12a b43e fdcb aebd
000002c0: 54ca 4abf ed00 97be 4f41 163f e4aa 0fbe
000002d0: d903 9bbe b27d 323f 3a23 57be 47c5 24be
000002e0: 6e3c 783e a775 063f 6442 cd3c 1f3d 3bbf
000002f0: c7fa e3be 6b6d 17bf d486 393f 98bb c23e
00000300: ce8d b3be 3a85 f0bd 01b5 843e a829 64be
00000310: 5d78 b13e bb18 f43e ca5b 4ebc 18ce cc3d
00000320: f49f 7bbe 972d 373f 3583 833e c79a 31bd
00000330: 4a2e 94bf 0b94 893e 86c8 a43d 415e 94be
00000340: b8aa e33e 2878 f73d 1686 aabe 26e5 873e
00000350: 60b5 163e b4e8 803d daec 0d3e f1ee 37be
00000360: dfcd 85be 6e2f debe 663e 363d 8545 993e
00000370: c97d 983d a8ee 9ebe b602 bc3e 6865 c43d
00000380: 6b0d d33e 18f3 67be 497e 64be 1b59 353e
00000390: ec9b 4ebf 4e4e d2bd 29c6 5e3d 44ed 3e3f
000003a0: 4115 0bbd d2ab a63e 4b09 39bf 9db5 9bbf
000003b0: b650 edbe e03d 23be 30a4 56bf b9e0 de3e
000003c0: fc2a f5bd 7f72 33bf b721 20be 13ef 0abf
000003d0: 228c 7bbf ff82 813e bcd4 07bd 84c2 b3be
000003e0: bbc1 823e 7c75 96be 54a9 24bf 677b fd3e
000003f0: 1c4c e93d 78ed 2fbf b684 f13e 2e01 933e

critic.2.bias f4 [32]
-0.24757415 -0.2169929 0.19308412 -0.32070264 0.48530525 0.33412075 0.6411628 -0.015593283
0.052212205 0.5094758 -0.8180913 -0.5457566 0.12093845 0.39466727 0.18818636 0.57081944
0.31542876 0.41269994 0.24089767 -0.14757995 -0.15149733 0.28248662 0.056736816 0.19677556
-0.4628472 -0.09798201 -0.50074476 -0.35186163 0.78900874 -0.24288368 0.7448229 -0.27913466
00000000: 1484 7dbe 6333 5ebe d8b7 453e 2333 a4be
00000010: ee79 f83e e011 ab3e 3f23 243f f87a 7fbc
00000020: 77dc 553d 026d 023f 6e6e 51bf b4b6 0bbf
00000030: 94ae f73d d411 ca3e edb3 403e 3921 123f
00000040: e17f a13e 684d d33e e1ad 763e 331f 17be
00000050: 1e22 1bbe 16a2 903e dd64 683d 887f 493e
00000060: 4ffa ecbe cbaa c8bd cf30 00bf 3527 b4be
00000070: 7afc 493f 80b6 78be b7ac 3e3f bdea 8ebe

critic.4.weight f4 [1, 32]
0.24584906 0.0893096 0.13990276 0.704364 -0.8257478 -0.28785947 -0.31162554 0.5722202
0.577127 -0.6687105 0.5611159 -0.1265758 -0.30580986 -0.13653776 0.066911064 -0.22861043
-0.081773594 -0.45310947 -0.30116838 0.24247837 0.24698956 -0.48389885 0.47511297 -0.09016589
0.49883395 1.0554937 -0.009885916 0.47859776 -0.36132345 0.20448877 -0.77046925 0.43141305
00000000: dbbf 7b3e f4e7 b63d ab42 0f3e 3351 343f
00000010: 3564 53bf 5162 93be 628d 9fbe 067d 123f
00000020: 98be 133f 9c30 2bbf 4ba5 0f3f 169d 01be
00000030: 1c93 9cbe 8ed0 0bbe ab08 893d da18 6abe
00000040: ea78 a7bd f7fd e7be be32 9abe 404c 783e
00000050: d5ea 7c3e 97c1 f7be 0242 f33e e5a8 b8bd
00000060: 2a67 ff3e 6b1a 873f 89f8 21bc c40a f53e
00000070: 63ff b8be 8165 513e 793d 45bf 2ce2 dc3e
