saved/PPO_continuous_BipedalWalkerHardcore-v2.pth (torch_old, 32100 bytes, 11 tensors)

actor.0.weight f4 [64, 24]
-0.18151303 0.30877995 0.80130917 0.8442014 0.030068364 0.5810726 -0.5180933 -0.48356295
0.58322245 -0.19615303 0.25543362 0.3006935 -0.43551397 0.12119469 0.37265944 0.38496524
0.44050232 0.45421448 0.3860921 -0.052340865 -0.05910026 -0.3622922 -0.13524224 0.03700256
-0.74259764 -1.2374811 -0.4048111 -0.82581216 0.81579494 0.5585846 -0.731091 -0.5676677
0.12533985 -0.22423694 0.31694117 -0.8690491 -0.34008017 -0.19662146 -0.06742523 -0.0230009
-0.031625822 0.17378478 -0.17997995 -0.16403148 -0.15210995 -0.07233898 -0.117405415 -0.3416696
0.071690515 -0.12628189 -0.5331302 0.7485781 -0.34046066 -1.1821051 -0.16180094 1.1612805
-0.14783543 0.20924471 -0.54015285 -0.4804772 0.4787146 -0.15931192 -0.07809014 0.06155995
0.018020876 -0.31927162 -0.1947599 0.2660404 0.054215044 0.15954608 0.10953637 0.1401824
-0.32160878 0.59369177 -0.15673392 0.71751636 -0.40334797 -0.30195588 0.78105193 -0.044873763
-0.27391735 0.17862043 -0.68885374 0.02454422 -0.11685228 0.3163086 -0.19399485 -0.049445834
-0.04187428 -0.083347626 -0.32847163 0.31194863 -0.014606589 -0.035631187 -0.36112285 0.050175026
0.49801397 0.022402668 -0.33151484 -0.30223578 0.3314482 0.67164224 -0.02501266 -0.70765144
0.035763096 -0.086995 0.31794712 -0.39793932 -0.0057974765 -0.4773527 0.5662065 0.28928778
-0.22801523 -0.24337594 0.2817682 0.14484902 0.037703075 0.16427529 0.01992454 0.08066556
0.04465453 1.1246573 0.40620425 0.5426336 -0.118084505 -0.56599504 0.15733199 0.32229885
0.18374825 0.18586159 -0.03948659 -0.5625236 -0.6697256 -0.150145 -0.1338205 -0.052140184
-0.03441652 -0.09276901 0.0060783494 0.13683762 0.300723 -0.096521385 -0.23586334 -0.13600658
0.094162025 -2.5759182 0.6167069 -1.3084319 0.10404794 -0.0055684927 -0.20756708 0.2514164
-0.2800146 0.067226484 -0.13497978 -0.32130244 0.49184084 -0.1552966 -0.023855632 -0.41707754
-0.23622891 -0.41620952 -0.17670886 -0.18376967 -0.42133 0.112705715 0.21716514 -0.06979994
-0.5115793 0.23341283 1.616508 -1.0768279 0.0321548 -1.5254083 -0.18847641 1.0583417
-0.09873312 -0.28122163 0.09613892 0.22447139 -0.35073975 -0.5764833 -0.18597174 -0.285114
-0.0818636 0.3239717 0.2731388 0.2498155 0.26258597 0.3859071 0.3902723 0.039664835
0.3037782 -0.5643995 -0.9390364 -1.2592642 -0.12223826 -0.476639 -0.46380213 -0.52463603
0.20704296 -0.10317012 0.027806615 0.20393644 -0.44293398 0.06753617 0.060037874 0.1746387
0.071017005 -0.32046202 -0.17071614 0.12171526 -0.11123567 0.18230678 0.30664223 -0.14533806
0.64561886 -1.9430437 0.41025275 -1.8802137 0.043978877 -0.003478527 -0.7636541 0.29570153
0.2231319 0.29566935 0.7297531 -0.0070116026 0.14408152 -0.23580252 0.14102179 0.08278507
-0.26783133 0.106927 0.29158765 -0.017992476 -0.041226704 0.099629395 -0.08305182 -0.07264902
-0.2778502 0.050970983 0.24656153 0.12897468 0.011427809 0.68322647 0.23519291 -0.38222542
0.21193692 0.020331217 -0.7163235 0.22120218 0.5381816 0.71040857 -0.20999297 -0.20887856
00000000: 8dde 39be 6818 9e3e 9922 4d3f 951d 583f
00000010: ee51 f63c 2dc1 143f c3a1 04bf 9095 f7be
00000020: 114e 153f 57dc 48be 32c8 823e 80f4 993e
00000030: b0fb debe ec34 f83d 38cd be3e 2a1a c53e
00000040: 8589 e13e cd8e e83e ddad c53e 6063 56bd
00000050: 1d13 72bd 5d7e b9be f17c 0abe ff8f 173d
00000060: e11a 3ebf c865 9ebf 6743 cfbe 6d68 53bf
00000070: f0d7 503f 66ff 0e3f c828 3bbf ac52 11bf
00000080: 1759 003e 5e9e 65be 1d46 a23e 007a 5ebf
00000090: fd1e aebe 2357 49be 3d16 8abd 626c bcbc
000000a0: 148a 01bd a3f4 313e aa4c 38be def7 27be
000000b0: b6c2 1bbe 7626 94bd 4072 f0bd 51ef aebe
000000c0: 7ad2 923d 0a50 01be 397b 08bf d0a2 3f3f
000000d0: dc50 aebe 384f 97bf 25af 25be d7a4 943f
000000e0: 2c62 17be 3f44 563e 7547 0abf 1c01 f6be
000000f0: 141a f53e aa22 23be b9ed 9fbd 4926 7c3d
00000100: 84a0 933c 9277 a3be 246f 47be 7336 883e
00000110: 9810 5e3d 0c60 233e 9b54 e03d fa8b 0f3e
00000120: e8a9 a4be 2ffc 173f db7e 20be 27af 373f
00000130: a083 cebe f699 9abe 05f3 473f 8dcd 37bd
00000140: e53e 8cbe 46e8 363e b858 30bf f610 c93c
00000150: 4050 efbd 33f3 a13e 96a6 46be b787 4abd
00000160: 5d84 2bbd 29b2 aabd 6f2d a8be bbb7 9f3e
00000170: 7a50 6fbc 02f2 11bd 18e5 b8be 5484 4d3d
00000180: b0fb fe3e cd85 b73c 50bc a9be a6be 9abe
00000190: 94b3 a93e bff0 2b3f 5ae7 ccbc a528 35bf
000001a0: 537c 123d 6f2a b2bd f7c9 a23e b4be cbbe
000001b0: c2f8 bdbb 9367 f4be e9f2 103f 871d 943e
000001c0: d37c 69be 8b37 79be ec43 903e 4d53 143e
000001d0: 8a6e 1a3d c837 283e ca38 a33c fc33 a53d
000001e0: abe7 363d c5f4 8f3f 01fa cf3e 09ea 0a3f
000001f0: 4ad6 f1bd 0de5 10bf a31b 213e 5b04 a53e
00000200: 8028 3c3e 8052 3e3e b1bc 21bd 8c01 10bf
00000210: 2373 2bbf 9cbf 19be 3e08 09be f290 55bd
00000220: 56f8 0cbd aefd bdbd e42c c73b 291f 0c3e
00000230: 5df8 993e 01ad c5bd 2986 71be 4f45 0bbe
00000240: 05d8 c03d d8db 24c0 81e0 1d3f b27a a7bf
00000250: 1617 d53d e777 b6bb 778c 54be a6b9 803e
00000260: 135e 8fbe 0aae 893d 2438 0abe c181 a4be
00000270: 90d2 fb3e 1206 1fbe e36c c3bc 308b d5be
00000280: fee5 71be 6a19 d5be 2bf3 34be 1e2e 3cbe
00000290: 91b8 d7be 41d2 e63d 8a60 5e3e 45f3 8ebd
000002a0: dcf6 02bf c603 6f3e bce9 ce3f 7fd5 89bf
000002b0: c0b4 033d 9440 c3bf f6ff 40be be77 873f
000002c0: 9734 cabd 48fc 8fbe 7be4 c43d d4db 653e
000002d0: 2994 b3be 6994 13bf 606f 3ebe 76fa 91be
000002e0: 1aa8 a7bd 9edf a53e d9d8 8b3e a2cf 7f3e
000002f0: ab71 863e 9e95 c53e c5d1 c73e 9877 223d
00000300: d188 9b3e 7c7c 10bf b164 70bf 922f a1bf
00000310: 0e58 fabd 070a f4be 7977 edbe 8c4e 06bf
00000320: 1203 543e db4a d3bd b3ca e33c b7d4 503e
00000330: 3ec8 e2be 6750 8a3d 46ea 753d 7dd4 323e
00000340: 5d71 913d 9913 a4be 36d0 2ebe da45 f93d
00000350: 87cf e3bd a1ae 3a3e 3600 9d3e 80d3 14be
00000360: 4747 253f a8b5 f8bf a60c d23e d8aa f0bf
00000370: 3223 343d 00f8 63bb d67e 43bf 3166 973e
00000380: b07c 643e f961 973e 19d1 3a3f 96c1 e5bb
00000390: 1b8a 133e 3776 71be 0468 103e 388b a93d
000003a0: 3021 89be 8bfc da3d fa4a 953e f564 93bc
000003b0: 55dd 28bd 7f0a cc3d 1317 aabd 02c9 94bd
000003c0: 6242 8ebe f3c6 503d a07a 7c3e f011 043e
000003d0: b43b 3b3c eee7 2e3f 69d6 703e 0db3 c3be
000003e0: fe05 593e a78d a63c fa60 37bf d382 623e
000003f0: 45c6 093f 56dd 353f 6608 57be 43e4 55be

actor.0.bias f4 [64]
-0.051970657 0.010656292 0.08724241 0.17264456 0.12334024 0.041319337 0.1326251 -0.019127678
0.06854312 0.09680357 0.053360812 -0.12451856 0.12552 -0.057894394 -0.11711895 -0.037885625
0.31545538 -0.015707036 0.08042254 -0.18476325 -0.16635078 0.10004166 -0.14130837 0.04563208
0.026629228 -0.034005605 0.047137484 -0.040808663 -0.05462028 0.08000696 -0.017079463 -0.09392194
0.28161862 0.19509842 -0.057723563 0.0076122656 -0.13746513 -0.05429941 0.0057431613 -0.111723654
0.12179883 -0.25183207 -0.22600673 0.045242216 0.17902379 0.1792733 0.06360957 0.051456176
0.055122234 0.22564387 -0.05310452 0.11361956 0.053663157 0.07249855 0.020576475 0.122651994
0.17856224 -0.1283253 0.04143272 -0.036862895 -0.017656138 0.26843467 0.06569062 0.030271161
00000000: 2fdf 54bd ba97 2e3c 26ac b23d bcc9 303e
00000010: cf99 fc3d 773e 293d e0ce 073e a6b1 9cbc
00000020: 5660 8c3d f340 c63d de90 5a3d 9603 ffbd
00000030: 5188 003e ac22 6dbd 0fdc efbd f52d 1bbd
00000040: 5e83 a13e 0bac 80bc 93b4 a43d 9432 3dbe
00000050: dc57 2abe a4e2 cc3d 24b3 10be b4e8 3a3d
00000060: 8a25 da3c 7649 0bbd 3c13 413d fc26 27bd
00000070: 84b9 5fbd b0da a33d 3bea 8bbc 255a c0bd
00000080: 5130 903e e1c7 473e 8b6f 6cbd 5070 f93b
00000090: a9c3 0cbe 0f69 5ebd 2131 bc3b 5fcf e4bd
000000a0: aa71 f93d 22f0 80be 4f6e 67be e74f 393d
000000b0: 0352 373e 6c93 373e bc45 823d b6c3 523d
000000c0: dac7 613d 300f 673e 2084 59bd 5fb1 e83d
000000d0: e6cd 5b3d 1f7a 943d ff8f a83c f830 fb3d
000000e0: 05d9 363e b567 03be 5bb5 293d 8cfd 16bd
000000f0: 9ba3 90bc 4570 893e ce88 863d 3afb f73c

actor.2.weight f4 [32, 64]
0.35496646 -0.42757648 0.0130562605 -0.02306761 0.23584618 -0.39572957 -0.56923205 -0.752993
-0.30592814 -0.8177279 -0.18714076 -0.2878226 0.097845234 0.39919987 -0.23569041 -0.27358466
-0.1638908 0.105097145 -0.51528186 0.12699974 0.16770013 0.01941749 0.47484633 0.39664033
-0.13220598 0.13403155 -0.41201848 0.48369372 -0.65172184 -0.13376452 0.2414094 -0.20212862
0.6497429 -0.23222966 0.07938349 0.681138 0.1944739 0.48562062 -0.012402626 -0.35309198
-0.088176936 0.015531021 -0.402094 -0.5920022 0.6122585 0.21124376 -0.05619667 0.13404189
-0.13292429 -0.10097269 0.29082885 -0.13702469 0.66244173 -0.36442453 0.18535003 -0.30649433
0.20493014 -0.05232882 0.40238062 0.8604657 -0.26996574 0.7091532 -0.00815364 -0.2330569
0.037456702 -0.53466725 0.09245366 -0.7986369 -0.10255176 -0.5019901 0.042171486 0.17916152
0.13500889 1.6044726 -0.23394343 0.25535768 -0.48666728 0.0877376 -0.1752328 0.011799666
0.26219466 -0.5417977 0.46516338 0.7314658 -0.49171874 0.65350497 -0.12027035 -0.5697397
-0.12915368 0.10592146 -0.63400793 -0.60435355 -0.5345189 0.103054754 0.2299555 0.18409
0.19371544 0.0072220736 0.4384774 -0.16259122 0.4340016 0.3872509 0.43924588 0.48655722
0.96312183 0.64336795 0.49358195 0.7083364 0.02799162 0.5155343 -0.35934395 0.29261675
-0.35174578 -0.7010503 -1.0400481 -0.08083963 -0.08544169 0.05277255 0.28186193 -0.3311123
0.33028165 0.8750439 -0.070443094 0.062239654 -0.068837896 0.92443514 0.6272085 0.6559529
-0.11371299 -0.24847193 -0.34274194 0.35382006 0.1346703 0.2547406 -0.3581786 -0.42884877
0.71090543 -0.1414605 0.4655067 0.1208002 0.018493315 0.12546921 0.40755075 -0.32823807
0.5305931 -0.5388925 1.0471298 -0.7224381 -0.6345493 -0.0418022 -0.089761734 -0.4542449
0.04002925 -0.022066185 0.9527682 -0.31649372 0.050409306 0.52972007 -0.30548054 0.42942753
-0.694868 0.5895817 0.8076923 -0.105217144 -0.12455554 -0.4142937 -0.00793245 0.66217643
-1.6964797 -0.45167977 -0.08073669 -0.018922517 -0.18193196 0.6124197 0.13005531 -0.79894763
0.70990294 0.077753454 0.25318 -1.02205 0.16506797 0.6024244 -0.18878765 0.274995
-0.07056941 -0.2991064 0.31046292 -0.9701756 -0.16138726 -0.4051004 -1.3997929 -0.1955027
-0.29202247 -0.077880815 -0.26512516 -0.06926002 0.36357847 -0.57708156 0.2690474 -0.15100935
0.41086897 0.317586 0.17907941 -0.07656642 0.1207319 0.33927542 -0.67645377 0.40111855
0.11146909 0.32652524 -0.21563415 0.431598 0.06553501 -0.08199139 -0.679776 -0.41715717
-0.5081874 -0.1718241 0.22118343 0.5037765 0.6926903 -0.20187555 -0.15052381 -0.20519923
-0.7393864 -0.6363947 0.03745329 -0.8757022 0.6211356 0.477724 -0.259111 -0.1286162
0.26847273 -1.1864172 -0.50258 -0.09208008 0.58267754 0.272342 0.118557446 0.3474123
0.16286036 -0.1310432 -0.6133136 0.4377344 -0.23336653 -0.862508 -0.3440966 -0.25335595
-0.290789 -0.8973443 -0.056546614 0.3474343 -0.22171567 0.31631243 0.81129456 -0.03409233
00000000: 2abe b53e 4eeb dabe ede9 553c 49f8 bcbc
00000010: a981 713e 119d cabe 31b9 11bf 26c4 40bf
00000020: 9da2 9cbe 9e56 51bf d4a1 3fbe 7c5d 93be
00000030: 1563 c83d ed63 cc3e d458 71be 4a13 8cbe
00000040: fdd2 27be 2c3d d73d 83e9 03bf 380c 023e
00000050: 95b9 2b3e 6e11 9f3c 0f1f f33e 7114 cb3e
00000060: 0161 07be 913f 093e 16f4 d2be b4a6 f73e
00000070: 3ed7 26bf 91f9 08be 0734 773e cefa 4ebe
00000080: 8d55 263f 9dcd 6dbe d093 a23d 0f5f 2e3f
00000090: 2b24 473e 44a3 f83e 6234 4bbc 79c8 b4be
000000a0: 1c96 b4bd d375 7e3c 44df cdbe 758d 17bf
000000b0: f9bc 1c3f 4950 583e 7b2e 66bd 4742 093e
000000c0: 4e1d 08be c5ca cebd 85e7 943e 3350 0cbe
000000d0: c895 293f da95 babe 66cc 3d3e d3ec 9cbe
000000e0: 35d9 513e bf56 56bd d504 ce3e 7b47 5c3f
000000f0: f338 8abe 108b 353f d896 05bc 78a6 6ebe
00000100: 336c 193d f4df 08bf 5858 bd3d 7873 4cbf
00000110: a806 d2bd 6c82 00bf 02bc 2c3d 1e76 373e
00000120: c53f 0a3e 5c5f cd3f de8e 6fbe 3ebe 823e
00000130: 742c f9be c5af b33d 3a70 33be 6353 413c
00000140: 613e 863e 41b3 0abf e529 ee3e 5841 3b3f
00000150: 8fc2 fbbe 1a4c 273f 4d50 f6bd 76da 11bf
00000160: dd40 04be 5aed d83d 584e 22bf eab6 1abf
00000170: 3bd6 08bf 5f0e d33d 7479 6b3e 1782 3c3e
00000180: 575d 463e 25a7 ec3b 1c80 e03e 507e 26be
00000190: 7535 de3e c045 c63e d6e4 e03e 071e f93e
000001a0: 278f 763f c3b3 243f c6b6 fc3e 8955 353f
000001b0: af4e e53c 0efa 033f eefb b7be ddd1 953e
000001c0: 0618 b4be 0878 33bf 4c20 85bf 3f8f a5bd
000001d0: 0efc aebd 0828 583d 3550 903e 8d87 a9be
000001e0: ad1a a93e e102 603f 7844 90bd 02ef 7e3d
000001f0: e2fa 8cbd c8a7 6c3f bc90 203f 87ec 273f
00000200: 5be2 e8bd 6d6f 7ebe df7b afbe e727 b53e
00000210: 03e7 093e 5c6d 823e 2f63 b7be 1192 dbbe
00000220: e6fd 353f 05db 10be e556 ee3e 1866 f73d
00000230: 4b7f 973c 007b 003e 7eaa d03e d20e a8be
00000240: f3d4 073f dcf4 09bf 5908 863f b4f1 38bf
00000250: d371 22bf c938 2bbd 00d5 b7bd ca92 e8be
00000260: b6f5 233d 25c4 b4bc 9ee8 733f 770b a2be
00000270: fd79 4e3d bc9b 073f f267 9cbe eddd db3e
00000280: dfe2 31bf d4ee 163f ecc4 4e3f 167c d7bd
00000290: fa16 ffbd 4e1e d4be 1bf7 01bc 6584 293f
000002a0: 3f26 d9bf 9242 e7be 4759 a5bd 6503 9bbc
000002b0: 5f4c 3abe 8ac7 1c3f 382d 053e d587 4cbf
000002c0: 33bc 353f 343d 9f3d cfa0 813e 89d2 82bf
000002d0: 9407 293e 7c38 1a3f 8d51 41be 25cc 8c3e
000002e0: b286 90bd 7924 99be fff4 9e3e 6e5d 78bf
000002f0: b442 25be 5269 cfbe 6a2c b3bf dc31 48be
00000300: f883 95be fa7f 9fbd 7cbe 87be 33d8 8dbd
00000310: f526 ba3e 9ebb 13bf 95c0 893e 32a2 1abe
00000320: 6b5d d23e a29a a23e 9860 373e dbce 9cbd
00000330: 4942 f73d 82b5 ad3e 132c 2dbf 695f cd3e
00000340: e849 e43d 512e a73e 33cf 5cbe 6afa dc3e
00000350: 3837 863d 1aeb a7bd cd05 2ebf a095 d5be
00000360: 9218 02bf a8f2 2fbe e97d 623e 7ff7 003f
00000370: 2754 313f 77b8 4ebe ea22 1abe bf1f 52be
00000380: 6d48 3dbf c3ea 22bf 9f68 193d 052e 60bf
00000390: be02 1f3f 3d98 f43e 32aa 84be f7b3 03be
000003a0: 4275 893e 85dc 97bf 15a9 00bf 7b94 bcbd
000003b0: 5b2a 153f 6970 8b3e 3fce f23d 06e0 b13e
000003c0: dec4 263e 3030 06be 1f02 1dbf b91e e03e
000003d0: a3f7 6ebe 53cd 5cbf 6e2d b0be dfb7 81be
000003e0: 4ce2 94be 5bb8 65bf 6c9d 67bd e9e2 b13e
000003f0: 6f09 63be b4f3 a13e 00b1 4f3f 66a4 0bbd

actor.2.bias f4 [32]
0.15197663 0.35570985 0.2824999 -0.03849662 0.12567717 -0.30882818 0.12698577 -0.0941536
0.089228675 0.012680333 0.21212488 0.12716049 0.052619625 0.17876647 0.039248418 -0.11009178
0.40127245 0.27591506 -0.22037488 -0.14483301 -0.033587098 0.12544052 0.25842386 0.33995464
0.03155828 0.044969555 0.17672586 -0.16464092 0.03438246 0.09071943 -0.013716114 0.03521885
00000000: c39f 1b3e 9a1f b63e d4a3 903e a2ae 1dbd
00000010: 84b1 003e ba1e 9ebe 8f08 023e 9ad3 c0bd
00000020: 86bd b63d 2cc1 4f3c 4437 593e 5c36 023e
00000030: ad87 573d 8f0e 373e f3c2 203d cd77 e1bd
00000040: 9573 cd3e bd44 8d3e f4a9 61be 1b4f 14be
00000050: a092 09bd 7b73 003e 2250 843e 890e ae3e
00000060: 4143 013d ff31 383d a0f7 343e a197 28be
00000070: 9fd4 0c3d 1ccb b93d 8db9 60bc a441 103d

actor.4.weight f4 [4, 32]
0.5397519 0.052130815 -0.3047461 0.61914945 -0.4535262 -0.83165234 -0.80642056 0.97713184
0.276171 -0.4183979 -0.7808023 0.5068295 -0.33317795 0.10514846 0.51158625 -0.49897885
1.3684589 0.4970977 0.80086464 0.07837562 -1.2636119 0.4829319 -0.57307327 -0.15408665
0.65000105 0.47279873 0.644191 -0.8922983 -0.28265196 -0.2362328 -0.33300704 -0.95303935
-1.5822861 -0.18112427 0.6236341 0.79736215 -0.3879831 -0.1039911 -0.7657927 0.088102326
1.2918717 -0.7597635 0.6777402 -0.46035054 -0.5401321 0.7289196 0.72132915 -0.34191942
0.007142811 -0.6779854 0.5535275 -0.27728876 -0.024372458 0.35786238 0.1803698 -0.91956353
-1.05797 0.43501478 -0.119688794 -0.62050074 -0.5939803 0.332794 0.59339476 0.603534
0.3325522 0.48231164 -0.38612828 -0.562832 -0.5005798 -0.0142982025 0.39043853 0.1822931
-0.31865913 -0.47289068 -0.7332409 0.5427763 -0.051868435 -1.0424687 0.170167 0.9402886
-0.01831502 -0.26312357 0.3879238 -0.04827691 0.3713552 -0.90735555 0.5210071 -0.74243283
-0.7075449 -0.52369946 -0.72130245 -0.3646127 -0.47823936 0.9209331 0.68470514 0.220005
-0.36411566 0.7177349 0.56293476 0.6207219 0.12555616 -0.22289427 0.103956595 0.591926
-0.3313644 0.37044498 0.034901455 0.32626703 1.214751 0.8464069 -0.067711346 0.8624955
-0.26874906 0.5370162 0.73041517 1.3548908 0.19260879 -0.81533533 0.5758854 -0.2680937
0.33990458 0.17811152 -0.61941737 -0.59667724 0.91885376 0.7822551 0.037797917 0.38691086
00000000: 2e2d 0a3f 1f87 553d ae07 9cbe 9480 1e3f
00000010: 9634 e8be 2be7 54bf 9471 4ebf 5025 7a3f
00000020: 4966 8d3e 4038 d6be a9e2 47bf 94bf 013f
00000030: 4d96 aabe 1358 d73d 51f7 023f 287a ffbe
00000040: a929 af3f 9783 fe3e 7705 4d3f 6683 a03d
00000050: 09be a1bf da42 f73e eeb4 12bf e4c8 1dbe
00000060: 7866 263f ad12 f23e b4e9 243f a96d 64bf
00000070: c2b7 90be 03e7 71be e67f aabe 63fa 73bf
00000080: 5a88 cabf a478 39be 7ca6 1f3f ed1f 4c3f
00000090: b9a5 c6be 49f9 d4bd fe0a 44bf fe6e b43d
000000a0: 0d5c a53f dc7f 42bf 6280 2d3f 11b3 ebbe
000000b0: 1946 0abf 7a9a 3a3f 07a9 383f 1010 afbe
000000c0: 3e0e ea3b 7490 2dbf fab3 0d3f cbf8 8dbe
000000d0: c0a8 c7bc bd39 b73e dcb2 383e 8468 6bbf
000000e0: 906b 87bf 42ba de3e 661f f5bd 23d9 1ebf
000000f0: 180f 18bf fa63 aa3e b8e8 173f 3481 1a3f
00000100: 4844 aa3e 8df1 f63e 9bb2 c5be c215 10bf
00000110: ff25 00bf 0243 6abc 8fe7 c73e 0bab 3a3e
00000120: 4a27 a3be ba1e f2be adb5 3bbf 63f3 0a3f
00000130: ff73 54bd 9d6f 85bf 4240 2e3e c1b6 703f
00000140: 6109 96bc 22b8 86be f39d c63e 02be 45bd
00000150: 4522 be3e 7448 68bf b960 053f 1410 3ebf
00000160: aa21 35bf 2b11 06bf 47a7 38bf 84ae babe
00000170: cadb f4be 46c2 6b3f d648 2f3f fe48 613e
00000180: 5e6d babe 79bd 373f 7e1c 103f a1e7 1e3f
00000190: cb91 003e 653e 64be 32e7 d43d 7688 173f
000001a0: 98a8 a9be f7aa bd3e d4f4 0e3d 790c a73e
000001b0: f67c 9b3f 1fae 583f 3fac 8abd 81cc 5c3f
000001c0: 7a99 89be e579 093f 7dfc 3a3f 106d ad3f
000001d0: 3d3b 453e d1b9 50bf 3a6d 133f 9443 89be
000001e0: f907 ae3e de62 363e 2392 1ebf d7bf 18bf
000001f0: 003a 6b3f df41 483f fdd1 1a3d 2e19 c63e

actor.4.bias f4 [4]
-0.058079716 -0.10449239 -0.10101359 0.07416996
00000000: ffe4 6dbd 1b00 d6bd 37e0 cebd 6ce6 973d

critic.0.weight f4 [64, 24]
0.40215462 -0.9762354 -0.9962994 -0.813758 0.34477785 0.17035209 0.19095778 -0.0050048498
-0.21446073 0.13481595 -0.19505292 -0.08667943 -0.083984554 -0.10518331 0.22761162 0.16383259
0.14310065 -0.14978628 -0.24526104 -0.5763816 -0.8173144 -0.1407548 0.5829894 0.16471137
-0.16159785 0.4209936 1.979313 -0.8367875 -0.071709394 -0.27107096 -0.053506896 -0.049559325
0.09787835 -0.3476704 0.19118412 -0.06395955 0.034333523 -0.03481216 -0.730595 -0.14133252
0.3311309 0.25112683 0.43394336 0.52717525 0.2996968 -0.53148615 -0.5038424 0.020201508
2.29059 3.3675025 -2.0967631 -2.3742912 0.44114682 0.0480093 -0.23718472 0.03899364
-0.103987224 -0.06894336 0.23799661 -0.33877566 0.05472603 -0.02693632 -0.039885685 -0.007969864
-0.23126787 -0.15985978 0.104832806 0.36220756 0.2038517 -0.110894755 -0.13751623 -0.09983502
0.76371086 -0.12731639 -2.0602555 -0.68797696 0.23040546 -0.104456276 0.07272029 0.0575248
0.38298666 0.64912194 0.20847212 0.01952623 0.12200909 -0.095135376 0.39123785 -0.07302211
-0.32749802 -0.25777954 0.068986535 0.6087299 0.8294591 0.39756984 -0.18826625 -0.15999697
-0.6954599 -0.9571809 2.2062702 0.35418504 -0.14777933 -0.24366048 -0.24942254 -0.07530223
-0.20628229 -0.670057 0.08790565 -0.4147967 0.0821861 -0.053513173 -0.2213018 0.34892642
0.3255313 0.39106175 -0.14314242 -0.26007152 -0.80829144 -0.65318483 0.05081101 0.08667672
-0.6284185 -0.85734326 0.9874687 -0.9676102 0.10881079 -0.065014124 0.004121494 -0.13548687
0.1550193 -0.31641752 0.030719845 -0.0066918996 -0.0096106855 0.033247903 -0.28708518 -0.0020813434
0.23975638 0.4164306 -0.106890544 -0.7606032 -0.9593651 -0.2050054 0.70980835 0.48258832
0.5872023 -0.49566042 -1.8462158 0.89899474 0.27299222 -0.26252052 0.25626066 -0.0031994695
-0.20639761 0.45071864 -0.13456486 -0.06092398 -0.277134 0.061002143 0.4784247 0.18481717
-0.400469 -0.29124862 -0.21896061 -0.25151327 0.18649767 0.24396923 -0.33254513 -0.002134492
-0.11708818 -0.6266117 -0.39982596 0.3038399 0.0016112174 -0.17583698 0.06165221 -0.13606842
0.08681537 0.3734813 0.012480329 0.11607444 -0.053276308 0.19353898 0.3883911 0.0392791
0.051384002 0.035421282 -0.33712196 -0.6767221 -0.21908344 0.54296947 0.7212597 0.10901674
0.58555627 0.55280024 -2.3884997 0.6334307 0.53374416 -0.012241082 0.7715488 0.05979114
0.15311922 0.3097531 0.2393768 -0.038880717 0.11045397 -0.1268546 0.28378776 -0.28844678
-0.60007304 -0.22050191 -0.2574852 -0.19209965 -0.14864412 0.2153628 0.014686397 -0.36105695
-0.28238392 -0.7847285 -0.11168798 1.7314435 0.73431045 -0.09588946 0.24144866 0.07480063
-0.8741062 -1.070873 0.07099472 -0.9808163 0.19055028 -0.8662917 -0.86058545 -0.7342831
-0.92160165 -1.1583536 -1.1038972 -1.3089256 -1.3883739 -1.5190398 -1.5131553 -1.2392187
-1.1771888 -0.8716279 2.1054366 -1.0387716 -0.66090095 0.06660344 -0.47427136 0.049810853
-0.028785663 -0.11355302 0.05078262 0.6446768 0.09095328 0.19516407 -0.14532843 0.15394382
00000000: 36e7 cd3e 90ea 79bf 7a0d 7fbf 7252 50bf
00000010: b986 b03e c770 2e3e 708a 433e b9ff a3bb
00000020: 989b 5bbe 310d 0a3e f4bb 47be fc84 b1bd
00000030: 1800 acbd 596a d7bd 0513 693e bbc3 273e
00000040: fa88 123e 9361 19be b625 7bbe bf8d 13bf
00000050: 843b 51bf 0722 10be cb3e 153f 19aa 283e
00000060: e879 25be 798c d73e 215a fd3f b537 56bf
00000070: 60dc 92bd d0c9 8abe 0c2a 5bbd b8fe 4abd
00000080: 7274 c83d db01 b2be c5c5 433e 39fd 82bd
00000090: 4fa1 0c3d 3297 0ebd 4608 3bbf 79b9 10be
000000a0: fd89 a93e b293 803e d32d de3e f5f4 063f
000000b0: dc71 993e 7a0f 08bf d1fb 00bf a27d a53c
000000c0: 0799 1240 2985 5740 5e31 06c0 63f4 17c0
000000d0: ffdd e13e 66a5 443d 8de0 72be ccb7 1f3d
000000e0: 41f7 d4bd 2d32 8dbd 62b5 733e 0174 adbe
000000f0: 6728 603d 8fa9 dcbc 2c5f 23bd 0894 02bc
00000100: 7cd1 6cbe 48b2 23be 95b2 d63d 4573 b93e
00000110: 80be 503e ca1c e3bd 0ed1 0cbe 4e76 ccbd
00000120: 8e82 433f 3a5f 02be 3adb 03c0 421f 30bf
00000130: 69ef 6b3e 2ced d5bd 60ee 943d 209f 6b3d
00000140: d416 c43e db2c 263f b779 553e 79f5 9f3c
00000150: e7df f93d 56d6 c2bd 5450 c83e 9e8c 95bd
00000160: d2ad a7be aefb 83be d048 8d3d b9d5 1b3f
00000170: 6e57 543f 468e cb3e dec8 40be 3fd6 23be
00000180: a909 32bf cf09 75bf 8833 0d40 be57 b53e
00000190: 7753 17be 2282 79be 9f68 7fbe 0e38 9abd
000001a0: aa3b 53be db88 2bbf e107 b43d 3c60 d4be
000001b0: 3051 a83d a130 5bbd f09c 62be 7ca6 b23e
000001c0: 0aac a63e 3f39 c83e ed93 12be 1828 85be
000001d0: 30ec 4ebf 1f37 27bf 351f 503d 9083 b13d
000001e0: 09e0 20bf d97a 5bbf c0ca 7c3f 4db5 77bf
000001f0: 31d8 de3d 2026 85bd 990d 873b 12bd 0abe
00000200: 61bd 1e3e 7a01 a2be 2fa8 fb3c b947 dbbb
00000210: 2376 1dbc f42e 083d d4fc 92be 2667 08bb
00000220: b282 753e 6436 d53e 6ee9 dabd e4b6 42bf
00000230: f498 75bf f0ec 51be 00b6 353f d115 f73e
00000240: e452 163f 34c7 fdbe cd50 ecbf 8524 663f
00000250: a3c5 8b3e 1769 86be 9934 833e 31ae 51bb
00000260: e559 53be 98c4 e63e 5fcb 09be 6c8b 79bd
00000270: 82e4 8dbe 62dd 793d 15f4 f43e b640 3d3e
00000280: 460a cdbe 8a1e 95be 3637 60be 59c6 80be
00000290: 3ff9 3e3e 12d3 793e 5b43 aabe d5e2 0bbb
000002a0: edcb efbd a069 20bf fdb5 ccbe e790 9b3e
000002b0: 7c2f d33a 9c0e 34be 0787 7c3d 8555 0bbe
000002c0: 42cc b13d f138 bf3e 4b7a 4c3c 70b8 ed3d
000002d0: 4238 5abd 152f 463e 33db c63e 1fe3 203d
000002e0: 0878 523d e815 113d 409b acbe a93d 2dbf
000002f0: 6957 60be 0c00 0b3f 7aa4 383f 2b44 df3d
00000300: 04e7 153f 5184 0d3f 2edd 18c0 8428 223f
00000310: 75a3 083f d28e 48bc 3984 453f 8ee7 743d
00000320: 49cb 1c3e f597 9e3e 311f 753e 6341 1fbd
00000330: b135 e23d 2ce6 01be a14c 913e 4caf 93be
00000340: 639e 19bf 41cb 61be 1ad5 83be c5b5 44be
00000350: 2a36 18be 1188 5c3e 379f 703c 75dc b8be
00000360: a094 90be f8e3 48bf abbc e4bd f19f dd3f
00000370: c5fb 3b3f b161 c4bd 513e 773e 1331 993d
00000380: 6dc5 5fbf 5e12 89bf ae65 913d c716 7bbf
00000390: 9d1f 433e 4bc5 5dbf 544f 5cbf faf9 3bbf
000003a0: 16ee 6bbf ee44 94bf 814c 8dbf e08a a7bf
000003b0: 3cb6 b1bf e56f c2bf 13af c1bf b89e 9ebf
000003c0: 1fae 96bf 0223 5fbf 79bf 0640 78f6 84bf
000003d0: ce30 29bf 6267 883d b2d3 f2be 7706 4c3d
000003e0: e9cf ebbc 7c8e e8bd 7001 503d 8a09 253f
000003f0: b745 ba3d 17d9 473e fad0 14be 73a3 1d3e

critic.0.bias f4 [64]
-0.40640897 -0.07237868 -0.109483026 -0.05994569 0.12083406 0.032167643 -0.11776716 -0.459677
0.1296248 -1.2520335 0.2712914 0.3784213 0.107278876 0.16804637 -0.7361338 0.37559932
-0.42701805 0.543707 -0.10971071 -0.26484364 0.23623145 -0.5175206 0.31711254 0.09743558
0.35211962 -0.31188136 -0.11308304 0.4347547 -0.2720546 -0.2738389 0.24122326 0.40758976
0.5437348 0.05288794 0.46726075 -0.22415136 -0.16189796 0.2951918 -0.6665607 -0.15071785
-0.31908607 -0.067803234 -0.07070452 0.056537233 0.04817716 0.36707124 -0.33639503 -0.6595238
-0.19094932 0.28521308 0.38795155 0.23384199 0.09151855 -0.5356875 -0.2057062 0.54607356
-0.3755474 -0.1768308 0.34464166 -0.55734605 -0.30342472 0.05351363 0.62710637 0.25111848
00000000: d614 d0be 463b 94bd a338 e0bd 9d89 75bd
00000010: d977 f73d 38c2 033d e92f f1bd c95a ebbe
00000020: 5dbc 043e a242 a0bf b5e6 8a3e 70c0 c13e
00000030: 07b5 db3d 5914 2c3e 4473 3cbf 8e4e c03e
00000040: 1ca2 dabe 6230 0b3f 02b0 e0bd 9699 87be
00000050: a8e6 713e 3b7c 04bf 935c a23e 4e8c c73d
00000060: 0649 b43e eaae 9fbe 1598 e7bd 2b98 de3e
00000070: be4a 8bbe 9d34 8cbe 3b03 773e 9baf d03e
00000080: 3432 0b3f 06a1 583d cd3c ef3e ef87 65be
00000090: 94c8 25be 6123 973e b9a3 2abf c855 1abe
000000a0: 405f a3be 6cdc 8abd 88cd 90bd 9693 673d
000000b0: 6a55 453d c3f0 bb3e f83b acbe 8dd6 28bf
000000c0: 3888 43be 7307 923e 96a1 c63e 4674 6f3e
000000d0: 146e bb3d d122 09bf a5a4 52be 7acb 0b3f
000000e0: c047 c0be 2213 35be df74 b03e 3bae 0ebf
000000f0: 7c5a 9bbe 1c31 5b3d 0b8a 203f 9a92 803e

critic.2.weight f4 [32, 64]
0.33832836 -0.3755173 -0.17382035 0.19135736 -0.10685127 0.2671106 0.02404056 0.006324153
-0.3119367 -0.73385435 -0.054113068 0.7792046 -0.47634748 0.53155744 -0.2748597 0.45141006
0.17620642 0.4964452 0.26912996 -0.05381677 -0.08780098 0.3292302 0.37332225 -0.2461654
-0.22086585 0.34180138 -0.04732765 -0.12623112 0.56287414 0.24329205 -0.02780191 -0.36592343
0.6381613 0.4163449 -0.019411324 0.48975497 0.8414251 -0.055582736 -0.034295183 0.69441
0.44732597 0.49261516 -0.5415407 0.37589687 -0.61314577 0.16934307 0.29375347 -0.4130024
0.138344 0.25380462 -0.035338566 0.11642565 -0.20758587 0.24661031 -0.12057577 0.8748102
0.15366097 -0.33769727 -0.37073365 -0.8334028 0.26522037 0.40810424 0.4153853 -0.3057791
0.365123 -0.07923083 -0.022206938 -1.0306184 1.1406397 0.5111288 -0.13564438 0.42462197
0.21430002 -0.060325664 0.45918337 0.12516116 -0.47380608 0.45927006 0.22856517 -0.29010117
0.39805466 0.1855377 -0.41293517 -0.31194383 0.5441064 -0.5948661 0.34317094 1.1085237
-0.15037248 -1.0810163 -0.036840424 -0.1732246 -0.28865126 -0.037801083 0.5217804 0.21482198
0.16880983 0.45750475 0.09362955 1.3536088 -0.70972997 0.279462 -0.13895176 -0.28673783
-0.8328871 -1.5632242 0.022029096 0.20615208 0.044529673 0.20581381 0.21668018 -0.23717424
-1.0003183 -0.36752337 0.014588098 -0.2313822 -0.20453979 -0.9693474 -0.8446983 0.13527241
-0.40164483 -0.8180858 0.5724148 -0.4765539 -0.37863293 -0.10159481 0.41500667 0.20550115
0.09911882 -0.8239663 -0.027827468 -0.45993328 0.8233308 0.20976095 -0.95915014 1.0468637
-0.69800144 0.067794554 0.46525395 -0.031494766 -1.0586225 0.6477852 0.31645018 -0.3429605
0.8260229 -0.63689935 -0.11414149 -0.20160168 -0.067255646 0.4482646 0.06903254 -0.38079187
-0.41515952 0.45261747 0.13693704 -0.48496434 0.45386404 0.32721236 0.09322652 -0.9792698
0.13615991 0.6278849 -0.6217329 0.8002205 -0.48233318 0.17853446 0.7523981 0.47252664
0.2696239 -0.3885621 -0.43860063 -0.49831203 0.062496718 -0.61031324 0.08567906 -0.13464212
0.26112676 0.024229877 -0.49779907 -0.31300324 -0.8802643 0.19079344 -0.27173564 0.12826726
-0.011945 0.021305367 0.011778299 -0.06039001 0.7605869 0.47968152 -0.021359948 -0.7144525
-0.5016368 0.5905492 0.37933823 0.22531871 0.19760326 -0.4302676 -0.3249978 -0.44048035
-0.23782822 0.6789004 0.25473383 -0.47611055 -0.037997052 -0.28131047 0.59572 -0.30516118
-0.16470277 -0.627395 0.18586934 0.42350203 -0.23544438 0.30972156 -0.25295192 -0.08461218
0.008035296 0.26019672 0.11944273 -0.0964106 0.43612355 -0.30541465 0.09716751 0.47889116
-0.26019105 0.6942974 0.24094029 0.19266224 0.07500918 0.046126973 -0.64022034 0.3976323
0.20141296 0.31410283 0.17564136 -0.62596565 0.20902541 0.15086769 0.09058222 0.47744706
-0.2423858 1.0259615 0.34573933 -0.0071073524 0.43903548 -0.03881093 -0.17683627 -0.40063757
0.10255541 0.69116414 -0.24041153 0.4397373 -0.6739131 0.41430074 -0.43171194 -0.28604236
00000000: 6039 ad3e ce43 c0be f6fd 31be 2ff3 433e
00000010: d7d4 dabd b8c2 883e b5f0 c43c d73a cf3b
00000020: 2bb6 9fbe e1dd 3bbf aaa5 5dbd f479 473f
00000030: d1e3 f3be 2614 083f 69ba 8cbe 381f e73e
00000040: 756f 343e 112e fe3e 67cb 893e f96e 5cbd
00000050: 00d1 b3bd dc90 a83e 1824 bf3e c812 7cbe
00000060: a82a 62be 9700 af3e a3da 41bd bb42 01be
00000070: 8518 103f 8d21 793e d5c0 e3bc 515a bbbe
00000080: 8a5e 233f 292b d53e 7f04 9fbc 2ac1 fa3e
00000090: a367 573f b9aa 63bd 1b79 0cbd dbc4 313f
000000a0: e907 e53e 0e38 fc3e 69a2 0abf 8e75 c03e
000000b0: 1ff7 1cbf 4568 2d3e db66 963e 0d75 d3be
000000c0: 0daa 0d3e aef2 813e 2cbf 10bd 9270 ee3d
000000d0: 6491 54be 6a87 7c3e 6ef0 f6bd 90f3 5f3f
000000e0: 4d59 1d3e a8e6 acbe cdd0 bdbe e359 55bf
000000f0: f7ca 873e 0af3 d03e 62ad d43e 148f 9cbe
00000100: 67f1 ba3e c643 a2bd 53eb b5bc 4eeb 83bf
00000110: 7b00 923f 56d9 023f 5ce6 0abe 0d68 d93e
00000120: 7771 5b3e 0b18 77bd 151a eb3e 3f2a 003e
00000130: b696 f2be 7225 eb3e fd0c 6a3e 2488 94be
00000140: d2cd cb3e 98fd 3d3e 3d6c d3be 1ab7 9fbe
00000150: 8f4a 0b3f 2549 18bf 1ab4 af3e 1be4 8d3f
00000160: 3efb 19be be5e 8abf fce5 16bd ca61 31be
00000170: 19ca 93be 4fd5 1abd 6693 053f 4bfa 5b3e
00000180: 7cdc 2c3e 103e ea3e d9c0 bf3d 0e43 ad3f
00000190: ddb0 35bf a515 8f3e 5f49 0ebe 4dcf 92be
000001a0: 1738 55bf bb17 c8bf 5d76 b43c 8819 533e
000001b0: bf64 363d dbc0 523e 69e1 5d3e cedd 72be
000001c0: 6e0a 80bf 062c bcbe eb02 6f3c 75ef 6cbe
000001d0: e172 51be 2727 78bf 263e 58bf da84 0a3e
000001e0: 64a4 cdbe 126e 51bf c789 123f dffe f3be
000001f0: 2ddc c1be f110 d0bd c17b d43e e56e 523e
00000200: cffe ca3d 75ef 52bf 6ef6 e3bc 607c ebbe
00000210: cfc5 523f 93cb 563e dd8a 75bf a1ff 853f
00000220: 39b0 32bf dfd7 8a3d c435 ee3e a800 01bd
00000230: f180 87bf 40d5 253f c205 a23e 8598 afbe
00000240: 3d76 533f d60b 23bf 03c3 e9bd ac70 4ebe
00000250: 54bd 89bd f082 e53e ef60 8d3d 27f7 c2be
00000260: ca8f d4be 7abd e73e 3939 0c3e 3f4d f8be
00000270: de60 e83e 6188 a73e 8ced be3d 6db1 7abf
00000280: 816d 0b3e 11bd 203f e329 1fbf 40db 4c3f
00000290: 60f4 f6be bdd1 363e 299d 403f 03ef f13e
000002a0: 250c 8a3e 9df1 c6be 4390 e0be c122 ffbe
000002b0: 8ffc 7f3d 7d3d 1cbf 8178 af3d a0df 09be
000002c0: 68b2 853e bc7d c63c 85df febe f641 a0be
000002d0: 0059 61bf 5b5f 433e ef20 8bbe 7e58 033e
000002e0: f6b4 43bc 9888 ae3c c4f9 403c 845b 77bd
000002f0: d3b5 423f d198 f53e 0ffb aebc 5ce6 36bf
00000300: 456b 00bf 3b2e 173f 9f38 c23e f3b9 663e
00000310: 8258 4a3e 094c dcbe 1d66 a6be a486 e1be
00000320: 3e89 73be 6bcc 2d3f 796c 823e c3c4 f3be
00000330: cca2 1bbd ed07 90be 1b81 183f 163e 9cbe
00000340: d8a7 28be f59c 20bf 8854 3e3e 42d5 d83e
00000350: 5518 71be d393 9e3e ea82 81be 2749 adbd
00000360: 79a6 033c 8138 853e 649e f43d ec72 c5bd
00000370: 964b df3e 4f5f 9cbe c2ff c63d 3931 f53e
00000380: c337 85be 79bd 313f 0db9 763e 4049 453e
00000390: 6a9e 993d a3ef 3c3d 7be5 23bf 7696 cb3e
000003a0: 333f 4e3e 16d2 a03e 54db 333e 493f 20bf
000003b0: c20a 563e 0f7d 1a3e 2c83 b93d f173 f43e
000003c0: fc33 78be b552 833f bf04 b13e cbe4 e8bb
000003d0: 42c9 e03e 36f8 1ebd 9114 35be 5e20 cdbe
000003e0: 9208 d23d 22f0 303f 712e 76be 3f25 e13e
000003f0: 9285 2cbf 3a1f d43e 5909 ddbe 2574 92be

critic.2.bias f4 [32]
0.73690397 0.31202233 0.21291699 -0.35808808 0.3895164 0.13720539 0.6103454 0.6390906
-0.33129415 0.54772407 -0.058944196 0.2627595 0.118013486 0.32905126 -0.4588185 -0.27167988
0.2287666 0.15411855 0.6497789 -0.14815888 0.09436755 0.290134 0.2711876 0.51824003
0.006207467 0.14071177 -0.1969176 0.050858974 0.004132722 0.050593328 -0.02773659 0.58733714
00000000: bda5 3c3f 64c1 9f3e e906 5a3e 5257 b7be
00000010: b26e c73e 927f 0c3e 993f 1c3f 719b 233f
00000020: 639f a9be a537 0c3f 786f 71bd 6a88 863e
00000030: 0eb1 f13d 6879 a83e 42ea eabe a019 8bbe
00000040: cb41 6a3e 41d1 1d3e e957 263f f6b6 17be
00000050: c643 c13d 728c 943e 1ad9 8a3e 61ab 043f
00000060: 0268 cb3b bf16 103e c4a4 49be 8051 503d
00000070: c96b 873b f33a 4f3d d837 e3bc ba5b 163f

critic.4.weight f4 [1, 32]
-0.8264384 -0.25611767 0.034972783 0.29551876 -0.75278884 -0.12965567 -0.31114367 -0.21200813
0.21301873 -0.545448 -0.46105656 0.20358694 -1.0874227 -0.3520458 0.21064323 0.46362627
-0.34322155 -0.15197134 -0.406617 0.10193644 -0.23229311 -0.32145035 -0.7814557 -0.6642946
0.24072023 0.9018351 0.13124467 0.14578488 -0.46477786 -0.27300584 0.29767323 -0.25130793
00000000: 7891 53bf db21 83be 9f3f 0f3d 3c4e 973e
00000010: c5b6 40bf 75c4 04be 394e 9fbe a918 59be
00000020: 9521 5a3e 7ba2 0bbf 9b0f ecbe 1879 503e
00000030: ab30 8bbf 593f b4be dcb2 573e 6c60 ed3e
00000040: bcba afbe 609e 1bbe 1a30 d0be 0dc4 d03d
00000050: 3fde 6dbe 2495 a4be 7b0d 48bf 360f 2abf
00000060: 5d7f 763e aade 663f 0165 063e a248 153e
00000070: 5df7 edbe 6cc7 8bbe a068 983e 6fab 80be
